experiments/convex_hull/fit_filters_250/combined_weights_pinv.npy (npy, 48128 bytes, 1 tensors)

array f4 [250, 48]
0.29714113 0.6483666 0.25890288 0.08900798 0.13272762 0.22382125 0.08839014 0.13447429
0.24167393 -0.2775963 0.25177568 -0.1830578 0.13913395 -0.049182627 -0.011491437 0.004945203
-0.02891494 0.03595165 -0.06654811 0.0071344366 -0.016968265 0.07595427 0.05887594 0.014486681
2.5656703 -10.669868 1.1749582 16.959606 -1.5495768 -21.405931 4.6402793 -18.063549
0.9855262 -19.849932 0.382362 15.456556 -4.4604907 -16.474302 0.6928661 -12.559001
7.54324 -1.5775435 -4.477802 -2.8334038 -1.0657091 -0.20167315 -0.04554428 -0.034968745
1.3270422 1.0362742 0.14869004 -0.2725797 -0.31303212 -0.3519203 -0.42208713 0.37141752
0.2632137 -0.16179189 0.10547509 -0.04542711 0.006684087 0.058382533 0.0639161 -0.082548864
-0.062076777 0.0069212886 -0.11896912 0.0692548 0.055071015 0.128488 0.011743336 0.011878445
-2.8538513 -2.964815 4.1626644 9.398829 -1.4580805 -8.539992 4.649446 -3.5882947
6.414059 2.6944466 5.390479 -3.1737683 -15.539822 -10.925533 -6.9546256 -16.343258
10.933447 3.209739 -0.7228703 -0.9270597 -0.4197818 -0.0964782 0.052287772 -0.020933822
-0.34035102 -0.11856907 0.14480233 0.18287492 0.09014691 0.012097062 0.03823895 -0.068339385
-0.040346336 -0.008002986 0.032829206 -0.03922133 0.024408042 -0.03506532 -0.03281868 0.01562634
-0.0011576195 0.009015521 0.015774913 -0.0068724076 -0.027445951 -2.2409233e-05 0.00802699 0.010707529
-0.14730488 2.8480105 -0.038066924 -5.8238864 1.2350746 5.044142 -1.9766903 3.5564046
-0.89353555 5.957078 5.775542 2.0780284 1.4435804 1.2419758 1.1563045 2.6802363
-1.6987026 -0.23688912 0.36029094 0.27725312 0.11257033 0.053332135 0.0038147995 -0.024826987
-0.1628652 0.20832552 0.452889 0.28651732 0.02013313 -0.11987695 -0.123521075 0.08364055
0.0982182 -0.12480965 0.110741 -0.07309686 0.032208953 -0.00517912 0.0027550822 -0.022814408
-0.032757573 0.016473614 -0.008542512 0.0010517045 -0.02213189 0.048050247 0.021111853 0.02170734
0.6345006 -0.3418932 -0.8574686 3.6968846 -2.171158 -3.123465 4.8254848 0.8150022
3.522722 3.3450198 0.39875337 -4.50504 -6.9443126 -3.1922696 -3.4684725 -6.316002
4.549102 1.7845595 0.28678215 -0.045730814 -0.058336325 0.037572388 0.009658867 -0.052025642
0.3910471 0.62843096 0.32975408 0.14146659 -0.013211031 -0.14615403 -0.2188785 0.2298603
0.15907277 -0.115026325 0.09445146 -0.06063344 0.026972178 -0.0007923228 0.011293595 -0.025359035
-0.048998825 0.014334429 -0.10365931 0.013653236 -0.0077081323 0.117254086 0.044751525 0.010463649
-2.0014925 0.2146387 8.201363 -2.692625 -8.250943 5.33684 3.6766236 6.2643743
-1.7154256 6.450643 17.537546 18.81648 7.1703157 -4.733657 7.7785444 5.6733246
-3.886939 -2.5145555 -1.4467591 -0.56452 -0.13101684 0.09961785 0.02479761 0.0035355685
0.4040628 0.6352593 0.3271406 0.1367842 -0.025037179 -0.088933334 -0.12914138 0.17156124
0.113869585 -0.067051746 0.028011816 0.0025894588 0.00059926265 -0.0137317395 0.0023823003 -0.031970166
00000000: e222 983e 5afb 253f eb8e 843e d149 b63d
00000010: c0e9 073e 6631 653e e405 b53d a1b3 093e
00000020: 5f79 773e 1a21 8ebe bee8 803e 8173 3bbe
00000030: 2179 0e3e b973 49bd 9546 3cbc 5f0b a23b
00000040: 06df ecbc 0a42 133d 604a 88bd fec7 e93b
00000050: 0801 8bbc ea8d 9b3d e627 713d 8b59 6d3c
00000060: f133 2440 c8b7 2ac1 0865 963f 46ad 8741
00000070: 8858 c6bf 593f abc1 2b7d 9440 2682 90c1
00000080: 724b 7c3f a9cc 9ec1 f4c4 c33e 0e4e 7741
00000090: 57bc 8ec0 5fcb 83c1 ac5f 313f abf1 48c1
000000a0: 3962 f140 f2ec c9bf 274a 8fc0 7d56 35c0
000000b0: 2869 88bf 6883 4ebe a48c 3abd 633b 0fbd
000000c0: 85dc a93f a2a4 843f 3442 183e 918f 8bbe
000000d0: bf45 a0be e62e b4be ce1b d8be 702a be3e
000000e0: f2c3 863e c6ac 25be 5303 d83d c711 3abd
000000f0: 3006 db3b 8622 6f3d 72e6 823d 610f a9bd
00000100: 3844 7ebd facb e23b 15a6 f3bd 76d5 8d3d
00000110: 2592 613d 5c92 033e 1f67 403c cf9d 423c
00000120: 80a5 36c0 87bf 3dc0 8c34 8540 9b61 1641
00000130: 62a2 babf cfa3 08c1 43c8 9440 9fa6 65c0
00000140: f93f cd40 d071 2c40 ce7e ac40 051f 4bc0
00000150: 1ca3 78c1 fcce 2ec1 4b8c dec0 febe 82c1
00000160: 66ef 2e41 5d6c 4d40 070e 39bf c953 6dbf
00000170: a4ed d6be 5d96 c5bd b42b 563d 687d abbc
00000180: 7d42 aebe 57d4 f2bd 1047 143e 9043 3b3e
00000190: f19e b83d c132 463c 72a0 1c3d 85f5 8bbd
000001a0: 3342 25bd f51e 03bc eb77 063d 8ca6 20bd
000001b0: 60f3 c73c a7a0 0fbd e16c 06bd cf02 803c
000001c0: 44bb 97ba d6b5 133c 643a 813c ef31 e1bb
000001d0: 55d6 e0bc 76fb bbb7 a383 033c a26e 2f3c
000001e0: 17d7 16be ce45 3640 10ec 1bbd 475d bac0
000001f0: ed16 9e3f 9c69 a140 3004 fdbf 229c 6340
00000200: bfbe 64bf 62a0 be40 3dd1 b840 6bfe 0440
00000210: 3ec7 b83f 10f9 9e3f c901 943f fe88 2b40
00000220: 166f d9bf 1093 72be 0e78 b83e 1ff4 8d3e
00000230: 468b e63d cc72 5a3d b701 7a3b f761 cbbc
00000240: 23c6 26be 4953 553e 11e1 e73e 66b2 923e
00000250: 3cee a43c 0c82 f5bd 9ef8 fcbd bd4b ab3d
00000260: a026 c93d 349c ffbd 2dcc e23d ceb3 95bd
00000270: 89ed 033d 9cb5 a9bb 9c8e 343b 48e5 babc
00000280: ce2c 06bd acf3 863c e4f5 0bbc 59d9 893a
00000290: f04d b5bc 56d0 443d c4f2 ac3c 97d3 b13c
000002a0: a26e 223f a00c afbe 1083 5bbf c299 6c40
000002b0: 41f4 0ac0 dae6 47c0 5f6a 9a40 fca3 503f
000002c0: 4774 6140 ce14 5640 6729 cc3e 4a29 90c0
000002d0: cf37 dec0 254e 4cc0 74fb 5dc0 b01c cac0
000002e0: 3e92 9140 726c e43f 1cd5 923e 3c50 3bbd
000002f0: 12f2 6ebd 81e5 193d 3940 1e3c d718 55bd
00000300: 5337 c83e dae0 203f 87d5 a83e 9edc 103e
00000310: 1573 58bc 67a9 15be af21 60be 8060 6b3e
00000320: f9e3 223e ec92 ebbd c46f c13d c55a 78bd
00000330: c2f4 dc3c e2b3 4fba c508 393c c0bd cfbc
00000340: feb2 48bd f4da 6a3c 554b d4bd d3b1 5f3c
00000350: 8094 fcbb e922 f03d 604d 373d ba6f 2b3c
00000360: 7418 00c0 3fca 5b3e c838 0341 f853 2cc0
00000370: dd03 04c1 65c7 aa40 cd4d 6b40 c175 c840
00000380: 1193 dbbf ab6b ce40 e54c 8c41 2788 9641
00000390: 3a73 e540 1e7a 97c0 d6e9 f840 e08b b540
000003a0: 9cc3 78c0 7aee 20c0 672f b9bf 6284 10bf
000003b0: 4729 06be 7104 cc3d 5b24 cb3c ffb4 673b
000003c0: 52e1 ce3e 5aa0 223f f97e a73e 2811 0c3e
000003d0: c51a cdbc ae22 b6bd a33d 04be c0ad 2f3e
000003e0: 7534 e93d 6d52 89bd 0979 e53c e9b3 293b
000003f0: d617 1d3a 17fb 60bc 5e20 1c3b 26f3 02bd
