experiments/convex_hull/fit_first_16_488/combined_weights_pinv.npy (npy, 93824 bytes, 1 tensors)

array f4 [488, 48]
00000000: 7483 ecbc e549 31bd d9b4 2abd 8fee 7ebb
00000010: 8002 453d 44b5 a03d 33ce 903d 8b1c 23bd
00000020: 3ac3 d2bb 4443 9bbc 86e8 003d fbb5 00bd
00000030: f479 d43c 5ddc a9bc 660c 79bc f430 c53b
00000040: 765b 8abb cfa6 003c c1ee 63bb d295 9aba
00000050: 663b 57bb 8b86 6bbb 912e 1f3b 39a9 5fba
00000060: b535 a93d db7e c93d cf8c eebc e405 cbbd
00000070: 7716 16bd 5ef5 2ebb afe7 bdbc a404 d93c
00000080: 91bd 753c f717 00bc 3c18 c1bb a2d7 a73c
00000090: 84b0 b1bc 0fdb 4f3c f3e9 183c 60fd 3bbc
000000a0: 40a2 debb 7d2a d539 ab74 e33a 1c5f 1ebb
000000b0: e3a1 243b 5a07 c83b bf7d c038 8d1e 483a
000000c0: d160 243c 6940 8abd 94db 8dbe b41e 5dbe
000000d0: d8df d43d 16bf a23e 8e64 b13e 2168 3ebe
000000e0: b9fd 9ebb 2d31 b6bd 0e8e fc3d de51 d5bd
000000f0: 5543 b23d 5c30 9ebd 0b55 51bd 0e9f 853c
00000100: dc3f 84bc b5d3 b63c b81d 98bc 6f0f 593c
00000110: f161 72bc 778b 84bc a474 663b 5db5 333a
00000120: 6dd0 423d 1611 933d d7af 2d3d fbf0 71bc
00000130: 6858 60bd a125 9dbd 13da b2bd 81d2 9c3d
00000140: 26e2 423d a9fb 17bc 7b76 c8bc 695f 353d
00000150: 5596 36bd b903 033d 4e6a 9c3c 9212 3ebc
00000160: 57c4 07bc 876d b53b e294 b63b 3b01 0cbb
00000170: 0127 d73b bd3b 943b d4c2 6ebb 6959 c5ba
00000180: 9e3a 31bb f620 243d 5cd3 133e a64c df3d
00000190: 852a 93bd c414 38be 50eb 3dbe 0a70 ba3d
000001a0: ea5e 22bc 6229 653d 42c5 90bd d396 6b3d
000001b0: e48b 44bd 9ded 323d 40a9 ea3c 5b67 02bc
000001c0: 9312 393c 29aa 73bc 9d71 453c c474 14bc
000001d0: c5a9 0c3c d4de 0b3c 348a 08bb 77a5 33ba
000001e0: 8f27 b7bc 901e 0abd 92ff bebc 4ce2 a0ba
000001f0: ed39 873c 537d fe3c 397e 2f3d 6f48 31bd
00000200: 2649 04bd c823 633c 6f9e 9d3b aebd 92bc
00000210: d2f8 ad3c e7c1 89bc d4b5 33bc bae7 f43b
00000220: 43ca ba3b 227d 85bb 19a4 2fbb dbaa 853a
00000230: d111 72bb 293a 15bb b018 c23a dfef 6b3a
00000240: bca5 273c 7a63 833c fe0c 3a3c cb4b 1dbc
00000250: 3bc2 05bd 3690 2fbd 3e98 1ebd e924 ba3c
00000260: 3f90 19ba bf0c ad3c 1365 02bd daa9 073d
00000270: ca88 eebc f955 b23c 8c92 3e3c b3c2 3eba
00000280: 24a5 ac3b b224 e0bb e5c7 e93b a090 19bc
00000290: dbc4 af3b 292a b83a 70c9 01ba e314 3eba
000002a0: 2571 a23b 7d25 263c 7b75 473a 2a22 cbbc
000002b0: 06ec 39bd 5fc4 35bd 6242 b6bc 209b 2cbc
000002c0: d326 21bd da38 593d 7302 4abd d2e0 0b3d
000002d0: 0882 72bc b199 27bb 2ea9 75bc cbf8 b63c
000002e0: 9281 b23c 91aa 6fbc 517d 643b dfe9 0d3b
000002f0: 78fb c0bb 4f2b 983b 7cca 3dbb 5784 543b
00000300: 3c43 9fbc 026d 773d e7d2 2d3d 16a5 60be
00000310: 3734 b2be 6021 96bd 5ac2 9d3e 1f8a d7be
00000320: 2de2 7cbe 100e 6c3c bb18 063e 7226 2dbe
00000330: 3b30 003e e693 3abd 2d7f d93b c188 8abb
00000340: be74 613c 1f05 12bc b768 1fbc fb22 5d3b
00000350: b3eb 1dbc 28e0 d4bb 3285 d73a ce0a 30bb
00000360: 1e6d 143d 0ac5 863d 68c2 523d 0d53 95bc
00000370: a4a1 bdbd fadd efbd 20bf bbbd 5783 2d3d
00000380: 2bc7 0abc 4351 383d 937a 6abd 3e6b 473d
00000390: 86c7 ebbc bffb 503c 7501 a43b ddfc c0ba
000003a0: e13e 51bb c812 343a 5c6a 4ebb 7d24 b839
000003b0: b624 b138 7970 113c 77a7 f8ba a0a2 543a
000003c0: e0c0 89bc 8f56 a1bb 4a76 e6bd 2ee9 95bd
000003d0: d769 813d 57e2 f93d b3e6 d03d 6f24 63bd
000003e0: b939 573b 3f32 2cbd 4c3f 3d3d a96c 05bd
000003f0: d93f 043d 5998 fdbc e79e 8ebc a485 293a
-0.028871275 -0.043283362 -0.041676376 -0.0038899516 0.048098087 0.07847074 0.070705794 -0.039822143
-0.006431964 -0.018952973 0.03147175 -0.03142355 0.025937058 -0.02073496 -0.01520071 0.0060177986
-0.004222329 0.00785227 -0.003477976 -0.0011793918 -0.00328418 -0.0035938348 0.002428923 -0.0008531991
0.08262197 0.09838649 -0.029119877 -0.09913233 -0.036642518 -0.0026696543 -0.023181764 0.02649147
0.014998809 -0.007818214 -0.0058927815 0.020488564 -0.021690615 0.012686505 0.009333122 -0.0114739835
-0.006794244 0.00040658182 0.0017353495 -0.0024165576 0.0025120906 0.006104392 9.1786955e-05 0.0007633947
0.010032848 -0.067505665 -0.27706587 -0.21593744 0.10394257 0.31786412 0.3464703 -0.1859441
-0.0048520234 -0.08896098 0.12331782 -0.104160056 0.08704249 -0.077240676 -0.051106494 0.016311195
-0.016143732 0.022317747 -0.018568859 0.013248309 -0.014793859 -0.016179783 0.0035164738 0.00068553333
0.04756205 0.07180993 0.042404022 -0.014766927 -0.05477181 -0.07673193 -0.087330006 0.07657338
0.047578953 -0.009276309 -0.024470558 0.044280443 -0.04457696 0.031985972 0.019093659 -0.011601107
-0.008286557 0.0055367383 0.0055719474 -0.0021363038 0.006565929 0.004523723 -0.0036432045 -0.0015056554
-0.0027042995 0.040070496 0.14436096 0.109032914 -0.07185844 -0.17976671 -0.18546796 0.09103401
-0.009910325 0.05594767 -0.07068874 0.057516884 -0.047984973 0.043683637 0.028645158 -0.007959212
0.011295932 -0.014872112 0.012051013 -0.009061042 0.008585398 0.008537013 -0.0020834329 -0.0006852964
-0.02235773 -0.033720553 -0.023315225 -0.0012274473 0.016507113 0.031065619 0.042844985 -0.04328197
-0.032296322 0.013863511 0.0048101465 -0.017912712 0.02123681 -0.016816093 -0.010968644 0.007473913
0.005700381 -0.004073755 -0.002680069 0.0010198014 -0.003693689 -0.0022770262 0.0014808383 0.0009000282
0.010232385 0.016038645 0.011355637 -0.00960059 -0.032655936 -0.04286214 -0.03871941 0.022722678
-0.0005857981 0.021124242 -0.031834673 0.033120967 -0.02911796 0.02176951 0.011631619 -0.0007276937
0.0052687097 -0.006840312 0.007134425 -0.00937286 0.005364043 0.0014050651 -0.0004950976 -0.0007251037
0.0049573355 0.010140774 0.00076087535 -0.024796564 -0.045391105 -0.044376727 -0.02224845 -0.010535032
-0.039343666 0.053032734 -0.049318742 0.034149952 -0.01480151 -0.0025573785 -0.014993949 0.02233543
0.0217903 -0.014628069 0.0034864733 0.002165429 -0.0058893524 0.0046438347 -0.0028959801 0.0032427514
-0.01944124 0.060406692 0.04243746 -0.21937975 -0.34805462 -0.073305845 0.3081234 -0.42097566
-0.24695654 0.01440765 0.13095371 -0.16909197 0.12518398 -0.045551203 0.006637475 -0.004227728
0.013760744 -0.008912354 -0.009729556 0.0033742774 -0.009638715 -0.006496448 0.0016442894 -0.002686191
0.036236875 0.06580551 0.05145493 -0.018228078 -0.09259346 -0.117122605 -0.091673136 0.042361584
-0.008470337 0.044999372 -0.057245802 0.04868626 -0.028781664 0.012755333 0.0050050565 -0.0014723797
-0.0031928348 0.00068692537 -0.00314965 0.000351224 8.446856e-05 0.008876913 -0.0018970807 0.0008111391
-0.016815603 -0.0049236487 -0.112530306 -0.07319866 0.063190155 0.12201374 0.102002524 -0.055454668
0.0032840802 -0.042040106 0.046202943 -0.03257433 0.032287452 -0.030956434 -0.017409755 0.00064667524
