experiments/convex_hull/fit_filters_216/optimized_weights.npy (npy, 41600 bytes, 1 tensors)

array f4 [216, 48]
000000 10 74 54 40 c4 cc 6c 40 fa 4a f9 3f 76 bb bb 40
       3.319584 3.699998 1.9476006 5.8666334
000010 00 91 27 c1 25 1a 51 40 44 c5 35 c1 8a 39 18 c0
       -10.4729 3.2672207 -11.360661 -2.378512
000020 3d 6e b4 3e 78 97 8c bf b6 d4 cb c0 12 04 14 c0
       0.35240355 -1.0983725 -6.3697157 -2.3127484
000030 92 3e 8a c0 a3 43 39 bf d7 fe 32 3f 70 68 27 3f
       -4.320138 -0.7236883 0.69920105 0.65393734
000040 ce 6b 05 3f 70 05 a4 be 46 52 67 bd 64 50 3e 3c
       0.5211762 -0.32035398 -0.056474946 0.011615846
000050 f5 8c e2 3c a0 d1 e1 3e 1b c1 c3 3d 5f 39 5b 3b
       0.027655104 0.44105244 0.09558316 0.0033450944
000060 df ad bb bf dd d7 08 40 e5 37 23 3f 66 9f 84 40
       -1.4662436 2.1381752 0.63757163 4.144458
000070 c6 ce 7c c0 7f a2 a2 40 5a 36 f0 c0 84 91 ee c0
       -3.9501204 5.082336 -7.5066347 -7.455263
000080 23 0c 03 41 fd b0 03 41 bd 90 db 40 e0 3b a0 40
       8.190463 8.23071 6.8614182 5.007309
000090 9f 0f 52 40 52 9e dc 3f 8a 60 5c bf e1 3e ae be
       3.2822034 1.7235816 -0.86084807 -0.34032348
0000a0 50 b9 35 3e 80 db e6 bc f9 87 23 bd 98 11 0f be
       0.17746472 -0.028180838 -0.039924596 -0.13971555
0000b0 fb 03 9b bc bd 87 3c 3e 19 79 88 3d 2d 39 d7 3c
       -0.018922796 0.18411155 0.066637225 0.02627238
0000c0 82 1c 29 40 18 04 46 be 99 0e 65 40 8d 55 dc 3f
       2.642365 -0.19337499 3.579016 1.7213608
0000d0 04 01 a4 bf 21 d8 8b 40 13 ee 1d c1 2d 38 23 c1
       -1.281281 4.370133 -9.870624 -10.201215
0000e0 25 09 77 41 cb 81 76 41 ae 45 67 41 55 be 42 41
       15.439733 15.406688 14.454512 12.171468
0000f0 a7 cf eb 40 46 81 91 40 24 55 0c c0 8f b9 69 bf
       7.369098 4.5470304 -2.1926966 -0.91298765
000100 16 65 cc 3e f4 85 53 3e 89 11 8b 3e 3a 0b bd be
       0.39920872 0.20656568 0.27161816 -0.36922628
000110 c8 04 e3 bd 8d f6 e0 3e cd 77 8e 3e 77 83 37 3c
       -0.11084896 0.43938103 0.27825776 0.011200777
000120 30 00 e2 40 e0 ef 96 c0 56 95 5d bc c8 a2 15 c1
       7.062523 -4.7167816 -0.013524374 -9.3522415
000130 f8 4a aa 40 a7 e2 c3 c0 99 c4 f4 40 0f 62 95 40
       5.3216515 -6.1214175 7.6489987 4.66822
000140 3c cb 9a c0 ec 95 77 c0 29 19 44 c0 44 62 e7 bf
       -4.837309 -3.8685255 -3.0640357 -1.8076863
000150 df 9f a7 bf 9c 5a 62 bf 88 06 a2 3e 6f 78 d4 3d
       -1.3095664 -0.8841951 0.31645608 0.103745334
000160 99 35 7f be 62 43 b0 3c 65 7b c6 bd fc 0f 37 bd
       -0.2492279 0.021516506 -0.096915044 -0.04469298
000170 84 4c a7 3d 88 28 f0 3e c3 6f 8b 3d d8 58 56 3b
       0.08168891 0.46905923 0.06808426 0.0032706764
000180 f3 76 7e be 95 3f f7 3e d0 08 73 3f 9e 09 3a bf
       -0.24850063 0.48290697 0.9493532 -0.72670925
000190 7c 84 d0 3f e6 2d d1 bf 60 80 74 3f f6 1c 9c 3e
       1.6290431 -1.6342132 0.95508385 0.30490845
0001a0 88 50 90 3f 92 74 c9 3f f8 7e 17 40 6b 98 da 3f
       1.1274576 1.57387 2.3671246 1.7077764
0001b0 a6 9d ad 3f 10 b3 1f 3f b6 12 b0 be ef a6 e4 bd
       1.3563735 0.623826 -0.34389275 -0.111646526
0001c0 11 9f 89 3c a9 52 82 3d 24 8b 39 bd 51 a4 6b 3c
       0.016799482 0.063634224 -0.04529871 0.014382438
0001d0 18 f7 82 bc 5a b7 ee 3d 86 32 30 3d e7 65 ab bb
       -0.015986964 0.11656065 0.043016933 -0.0052306536
0001e0 5a ce b6 3e a4 bf 25 c0 7c 02 9e 40 f8 0f a1 c0
       0.3570431 -2.5898218 4.9378033 -5.0331993
0001f0 25 ab 9d 40 5c 2d d1 bf 88 ff 0c c0 1c 61 c3 c0
       4.9271417 -1.6341968 -2.2030964 -6.105604
000200 02 8f 26 41 29 b0 36 41 9c d6 34 41 73 28 01 41
       10.409914 11.418008 11.302395 8.072375
000210 80 c4 a3 40 8c 67 1a 40 27 48 81 bf 45 fc db be
       5.117737 2.41257 -1.0100144 -0.42965904
000220 c5 15 3b bc c4 a3 f7 3d da 70 92 bd f0 9e e8 3c
       -0.0114187645 0.12091783 -0.07150431 0.0283961
000230 8b 90 b5 bc f5 13 e6 3d 70 94 8d 3d 71 cf c6 bb
       -0.02216365 0.11234275 0.06913078 -0.0060672094
000240 03 60 e3 3e 5a 1a 9e be f5 65 74 c0 7e 3a c4 40
       0.4440919 -0.3087948 -3.818723 6.13214
000250 26 cf e8 c0 f5 7c eb 40 3c 1a 8f c0 94 58 b2 3e
       -7.2752867 7.3590035 -4.4719524 0.34833205
000260 92 70 ab c0 b6 11 19 c1 1d f8 32 c1 a8 8f 14 c1
       -5.3574915 -9.566824 -11.185575 -9.285072
000270 b0 17 d6 c0 71 e3 59 c0 67 ad e3 3f 84 87 18 3f
       -6.6903915 -3.404507 1.7787293 0.5958178
000280 cd c2 76 be a1 ba 64 bd 1c 44 03 3e 39 66 ca 3c
       -0.24097748 -0.055842046 0.1281895 0.024706947
000290 bc 6c 50 bd 2e fb 6f be 23 03 93 bd c4 b8 bd bc
       -0.050884947 -0.23435661 -0.07178333 -0.023159392
0002a0 5a ed 82 bf 01 a1 68 c0 1b 2d 1b c0 40 6c d1 c0
       -1.0228684 -3.634827 -2.424628 -6.544464
0002b0 7e c9 04 41 87 34 08 c1 09 a7 85 41 51 1f 68 41
       8.299192 -8.512824 16.70656 14.507646
0002c0 5c e9 96 c1 97 30 8c c1 c2 6c 71 c1 57 c5 3b c1
       -18.863945 -17.523726 -15.089052 -11.735679
0002d0 b6 3b d4 c0 80 95 8e c0 7a 40 b3 3f 02 bd 8c 3f
       -6.632289 -4.4557495 1.4004052 1.0995181
0002e0 39 74 1e be a7 57 52 be a1 80 79 3c e4 fd af 3d
       -0.15474023 -0.20541249 0.015228421 0.08593348
0002f0 75 c8 e7 ba d8 38 b6 be 25 18 e7 bd 4f 62 e8 bd
       -0.0017683642 -0.35590243 -0.11283902 -0.11346876
000300 4b b1 dd bf 2f 90 ae c0 7a fc f6 bf 6e 82 c9 bf
       -1.731973 -5.4551005 -1.92958 -1.5742929
000310 47 ca b1 40 9f 05 35 bf 6a a6 f7 40 c2 85 f5 40
       5.555942 -0.707117 7.739064 7.672578
000320 28 62 36 c1 25 37 2c c1 74 f7 49 c1 8a 59 01 c1
       -11.398964 -10.763463 -12.622913 -8.08436
000330 06 a6 bb c0 a4 8c 75 c0 a3 04 38 3f 2f 04 b8 3f
       -5.8640165 -3.836709 0.71882075 1.4376277
000340 d2 9e d4 3e 19 53 22 bf 6b 5c 4a 3f 49 a1 d4 be
       0.4152742 -0.63408047 0.7904727 -0.415293
000350 ef 6a 12 be a6 34 30 bf 33 64 0c be b9 86 dc bd
       -0.14298604 -0.68830335 -0.13710098 -0.10767884
000360 5a 4d 6c be 7e 9d 37 c0 b8 8a c7 c0 7a 19 d4 c0
       -0.23076382 -2.8689876 -6.2356834 -6.62811
000370 ef 0c e5 3f bf 3c b2 c0 7f d3 1d 41 0d f5 10 41
       1.7894572 -5.5699153 9.864135 9.059827
000380 c2 36 4e c1 44 4e 29 c1 84 b9 37 c1 f3 59 d3 c0
       -12.888369 -10.581608 -11.482792 -6.60473
000390 fe 6d b1 c0 87 e5 0d c0 60 ab be 3f a6 2f 9a 3e
       -5.544677 -2.2171342 1.489605 0.30114478
0003a0 a3 f0 bc be 45 9f b3 bd 8d ca b7 bc ba dd 8e 3e
       -0.3690234 -0.087706126 -0.02243545 0.2790354
0003b0 e3 57 5d 3e 0b 63 12 bf ff fd f4 be 64 6f c6 3d
       0.21615557 -0.5718238 -0.47850034 0.09689215
0003c0 f8 57 c6 3e a9 8c 76 be 5d ab f3 3e 8a c2 83 3f
       0.3873899 -0.24077095 0.47591677 1.0293744
0003d0 5e 52 27 bf c9 d9 c1 3f 1e 1d f1 bf 60 da c7 bf
       -0.6536006 1.5144588 -1.8837011 -1.5613518
0003e0 fc 92 c2 3f 57 0f 93 3f 35 27 4e 3f 57 00 04 3f
       1.5201106 1.1489056 0.80528575 0.5156302
0003f0 20 e1 de 3e 64 ef 05 3e 0e 59 81 be 68 51 c3 3b
       0.43531132 0.13079602 -0.25263256 0.005960632
