experiments/convex_hull/fit_filters_1149/optimized_weights.npy (npy, 220736 bytes, 1 tensors)

array f4 [1149, 48]
000000 81 cb 16 3e 90 e2 92 be 97 7d 12 be 98 fd 39 be
       0.14726068 -0.28688478 -0.14305721 -0.18163145
000010 c8 31 aa 3d 16 a3 94 3d 16 8f 43 3e d2 90 61 bd
       0.08310276 0.07257669 0.19097552 -0.055069752
000020 9a 44 9d bd c0 8c 8e bd f5 5a 79 3c cb 76 90 bd
       -0.076791 -0.0696044 0.01521944 -0.07053908
000030 89 3f ca 3c ec f6 95 bc 3e 28 0a 3c bc 63 67 bc
       0.024688499 -0.018306218 0.008432446 -0.0141229
000040 51 1a 6f bc 57 97 c5 3a 76 6e 05 3b 00 4e 6f 3a
       -0.014593677 0.001507501 0.002036003 0.00091287494
000050 68 ac aa 3b 95 5f 66 bc 8d 56 12 bc 35 35 28 3b
       0.0052085407 -0.0140608745 -0.008931768 0.002566648
000060 00 97 49 be 22 ad 8f b9 f8 c8 a9 3d 94 85 81 3c
       -0.19686508 -0.0002740408 0.08290285 0.015810765
000070 1e 5d a1 3c c6 db 03 3d b2 fb 90 3c 67 1d ab 3b
       0.019697722 0.032192014 0.017698143 0.005222011
000080 7f cf 70 3b af f5 7a 3b 09 4b 82 b9 c6 33 c3 bb
       0.003674477 0.0038293411 -0.00024851438 -0.0059570996
000090 97 8d bc 3b f4 8f a3 bb 1f d1 29 bb ae 1b a5 3b
       0.0057541835 -0.004991526 -0.0025912 0.0050387
0000a0 6f af 53 3b 70 0e 01 3a e1 92 f8 3b a3 a8 f6 3a
       0.0032300611 0.0004923111 0.0075858687 0.0018818568
0000b0 f1 7f 5d bb 50 9a 73 bc 44 db 84 bb 0a ed af bb
       -0.0033798183 -0.014868334 -0.004054459 -0.0053688334
0000c0 d5 4e 26 3f bc 87 36 3f 64 4e 58 3d d0 16 09 bf
       0.6496404 0.71300864 0.052809134 -0.53550434
0000d0 4e 22 4d bf af e8 2f bf 1a 02 a5 be 69 8d b4 bd
       -0.8013047 -0.6871442 -0.32228166 -0.08816034
0000e0 7d 53 b2 be ca 61 d9 3e 23 17 ac be 81 dd 55 3e
       -0.34829322 0.4245742 -0.33611402 0.20885278
0000f0 b1 12 8d bd da f6 1d bd f7 c4 c9 bd 49 8b cf 3d
       -0.06888331 -0.038565494 -0.09852021 0.101339884
000100 b3 42 8e 3d e8 b1 d9 bc ff f5 02 bd 1a 76 05 3d
       0.069463156 -0.02657409 -0.03197288 0.032583334
000110 53 17 98 bb f4 91 57 3d be 28 09 3c a8 0b 34 bb
       -0.0046414523 0.052629426 0.00837153 -0.0027472768
000120 75 f6 d6 be 57 93 33 3d 66 c0 88 3e 69 c6 45 3e
       -0.41984907 0.043841686 0.26709288 0.19313969
000130 26 52 2f 3e 91 79 e8 3d ff 70 1c 3d 7b b4 ea 3c
       0.17121181 0.11351312 0.0381937 0.028650513
000140 71 c6 15 3d 2c d4 cd bc b7 09 f0 3c c8 12 11 bd
       0.0365662 -0.025125585 0.029301507 -0.0354183
000150 76 64 eb 3c 31 1f a9 bc f4 7f 84 bc 70 bc 72 3c
       0.028734427 -0.020644756 -0.016174294 0.014815435
000160 d0 19 7f 3a b4 04 2b 3b 30 80 74 3a e5 76 ec bc
       0.00097313244 0.0026095333 0.0009326963 -0.028865287
000170 c1 3e a4 bc e4 b2 9d 3c 07 23 96 3c 97 e7 ce 39
       -0.020049455 0.01925034 0.01832725 0.0003946393
000180 00 c7 4b bf 16 a4 04 bf 8c f9 de 3e 40 5f 38 3f
       -0.79600525 -0.51812875 0.43549764 0.7202034
000190 47 b9 81 3e df 3f 16 be 1c 1a 54 be a9 c0 7f 3c
       0.25336668 -0.14672802 -0.20713085 0.015609899
0001a0 65 f6 96 bd 83 b2 5d 3d 1f 21 fb 3c 4e 73 98 bd
       -0.07371215 0.05412532 0.030655442 -0.074438676
0001b0 97 ac 6f 3d 2b fa 8f ba 30 ff e2 3c 70 48 a3 ba
       0.058514204 -0.001098459 0.027709574 -0.0012457501
0001c0 6c d0 ba 3c bd f1 17 bc 2a 4f 00 bb 0d 0d a2 3c
       0.022804461 -0.0092739435 -0.0019578435 0.019781614
0001d0 a2 f6 26 3a c4 33 81 bd bd 1d 3f bc 9b 22 ea ba
       0.00063691486 -0.06308702 -0.011664805 -0.0017863096
0001e0 a3 1b ef bd 4b 4b 29 be d9 e9 f0 bd 00 1e ab bd
       -0.11675193 -0.16532628 -0.11763353 -0.083553314
0001f0 ed 7b a8 bc 64 69 19 3d 97 b6 61 3d 9a 9c 27 bd
       -0.020566905 0.037454024 0.055105772 -0.04092083
000200 9a 62 e2 bc 65 9a d2 3c 6e c2 9b bc 4c af 32 3c
       -0.027634908 0.025708387 -0.01901361 0.010906052
000210 88 18 15 bc f3 48 10 3c a8 1e 5a 3b 9c a0 0a 3c
       -0.009100087 0.008806455 0.0033282433 0.008461144
000220 dc ae 2b 3c 83 2f 30 bc 8c 41 aa bb ee ee e8 3c
       0.010478701 -0.010753515 -0.005195802 0.028434243
000230 1b b4 37 3c de 5e 4c bd 6b c8 b0 bc 16 48 8d bb
       0.011212374 -0.04989516 -0.021579942 -0.004311572
000240 68 25 96 3d 29 60 47 bd b2 ea 0f 3d f6 2b 9c 3c
       0.073313534 -0.04867569 0.035135932 0.019063931
000250 6d c3 46 3d a6 0f af 3b 2d cd 82 3c af 45 d4 3c
       0.048526216 0.0053424416 0.015966976 0.025912134
000260 03 01 2b 3c 3c fb 19 bd 8d ff 26 3c 46 db a4 bc
       0.010437253 -0.03759311 0.010192764 -0.020124089
000270 34 27 02 3c 12 4b cc bb 9d 9f a9 39 ea 56 70 bb
       0.007943917 -0.006234535 0.00032353113 -0.0036672899
000280 4a aa ba bb 2d c4 c9 3b 86 b1 a6 bb 41 c1 9a b9
       -0.0056965696 0.006157419 -0.0050870804 -0.00029517154
000290 0c 67 09 bb 3d 89 03 3c ee a7 89 3b 9d 69 b0 3b
       -0.0020965962 0.008028326 0.004200927 0.005383684
0002a0 cb f2 96 ba 00 23 82 3d 04 0e 6f 3d 9a 95 2b 3c
       -0.001151645 0.06354332 0.058362976 0.0104726795
0002b0 7e 23 a3 bc d5 0e 01 bd fd 19 11 bd 96 21 f6 3c
       -0.019914385 -0.031508286 -0.035425175 0.030045312
0002c0 1b 42 80 3c 7b 85 a3 bb 4f 58 0d 3a 4c 01 2b 3b
       0.015656522 -0.0049902773 0.0005391882 0.0026093302
0002d0 3d 67 8c bb c4 70 a0 3b c6 8e 94 3b 89 c5 bb bb
       -0.004284768 0.004896255 0.0045336215 -0.005730335
0002e0 e6 e5 b6 bb 60 0e 78 3b 48 9b d1 ba 54 00 8e ba
       -0.0055816052 0.0037850365 -0.0015991712 -0.0010833838
0002f0 63 b2 02 3b 1e 59 0f 3c 82 51 82 3a 69 b9 e8 ba
       0.0019942753 0.008749275 0.0009942504 -0.0017755452
000300 f8 cd b6 bd 03 a6 36 3d 11 36 05 3e f1 1c 74 3e
       -0.08926004 0.044591915 0.13008906 0.23839165
000310 4e b3 5a 3e 20 ab 20 3e 02 9d 78 3d ad 08 74 3c
       0.21357462 0.15690279 0.06069661 0.014894647
000320 29 68 a5 3d 65 ab c0 bd 91 c5 dc 3d 4b 3c c4 bd
       0.080765076 -0.09407691 0.1077987 -0.095818125
000330 65 9c b0 3d 14 a2 91 bd ca b9 6d bd 9f 6f 03 3d
       0.0862358 -0.07110992 -0.05803851 0.032088872
000340 81 ae 59 3c bb dd 55 ba a2 b7 20 bc 87 a3 45 bb
       0.013286234 -0.00081583456 -0.0098094065 -0.0030157284
000350 74 0d a5 bc 9b 5d 3d 3d c4 01 b8 3b 18 5f 46 bc
       -0.020148017 0.046231847 0.005615445 -0.012107633
000360 f9 d3 8f 3e e7 17 d9 3e 8c d3 81 3e d3 de 10 3d
       0.2809141 0.4240105 0.2535671 0.03536875
000370 2a 51 05 be cb e7 6b be d6 63 7b be 12 4b 43 3e
       -0.13019243 -0.23037641 -0.24549803 0.19071606
000380 08 6d f0 3d 15 87 7b bd 6b 4e db 3c d4 ee a8 ba
       0.11739546 -0.06140812 0.026770791 -0.0012888559
000390 e9 0c 4a bc 4b 12 d1 3c 4b e1 1a 3d fb bc 4e bd
       -0.01233218 0.025521418 0.037812512 -0.050473195
0003a0 0d f5 30 bd ce 6e 17 3d 8e b9 11 bd 52 23 8d 3c
       -0.04320245 0.036970906 -0.03557735 0.017228756
0003b0 11 59 d1 bb 1f 02 90 3d 7a ac a5 3b 13 f0 91 3a
       -0.0063887914 0.070316546 0.005055961 0.001113417
0003c0 a1 18 22 3f 5f e7 49 3f 31 88 e1 3e 4b c7 80 be
       0.6331883 0.7886867 0.44049218 -0.25152048
0003d0 a5 ff fc be 54 33 1c bf 41 0a ea be c4 18 82 3e
       -0.4941379 -0.6101582 -0.45710948 0.2540952
0003e0 83 47 ca bc 49 01 d5 3d a4 06 3e be 76 ea 30 3e
       -0.024692303 0.10400636 -0.1855722 0.1727694
0003f0 29 66 29 be 2b ec f6 3d 9f b5 8c 3d 55 41 c1 bc
       -0.16542877 0.12056764 0.06870579 -0.023590723
