experiments/convex_hull/fit_first_16_480/optimized_weights.npy (npy, 92288 bytes, 1 tensors)

array f4 [480, 48]
000000 25 9f 41 bc c1 a3 3c bc 47 8d 6a 3a ac 52 fa 3c
       -0.011817728 -0.011513651 0.00089474436 0.030557
000010 a1 93 71 3d e6 15 59 3d 3a 37 5e 3c ed 8f d4 3c
       0.05897868 0.0529994 0.013562972 0.025947535
000020 82 7c 35 3d 50 aa 2d bd c9 02 f3 3c f1 54 83 bc
       0.044308193 -0.04239875 0.029664414 -0.016031714
000030 b6 c3 01 3c 3d 15 c8 bb c5 3a 86 bb ea 29 9e bb
       0.007920196 -0.0061060474 -0.0040963613 -0.004826774
000040 57 94 69 bc a0 5a 83 3c 01 d7 e1 bb e1 48 1e 3b
       -0.014256558 0.016034424 -0.0068920855 0.0024152326
000050 6c a9 a3 ba 7c 32 f0 38 a6 47 24 3b 00 3f 2b b9
       -0.0012486405 0.00011453495 0.002506712 -0.000163313
000060 41 46 81 3d f2 13 32 3d c5 49 aa bd e8 96 9f bd
       0.06312228 0.043476053 -0.08314852 -0.07792455
000070 23 29 15 3d 53 d3 a3 3d 7d 8a 59 3d e8 84 cc bc
       0.036416184 0.07999291 0.05311059 -0.024965718
000080 cd c4 13 3c 7a 65 2e bd 15 78 40 3d c4 89 fb bc
       0.009019089 -0.042577244 0.04698952 -0.03070534
000090 9f c6 a3 3c 58 76 64 bc ad 00 99 b8 b3 ae 58 bc
       0.01999217 -0.013944231 -7.2957344e-05 -0.013225245
0000a0 67 6a 2a bc 18 97 77 3b b4 c7 43 bb bc a7 0e 3b
       -0.010401345 0.0037779268 -0.002987367 0.0021767458
0000b0 92 53 26 bb 9a b9 ef 3a c4 80 50 3b 34 03 b2 3a
       -0.0025379402 0.0018289567 0.0031815032 0.0013581277
0000c0 b9 f0 97 bc 5f b3 af bd 18 1c 74 be 23 9a 0b be
       -0.018547403 -0.08579134 -0.23838842 -0.13633017
0000d0 94 1e 1f 3e 5f 48 95 3e f3 88 89 3e ae 6a d7 bd
       0.15539008 0.29156777 0.26862296 -0.105183944
0000e0 35 3d 13 3d 78 48 a8 bd 6d 0e b0 3d 2e 3e 80 bd
       0.035947043 -0.08216947 0.085965015 -0.0626186
0000f0 e1 8d 69 3d d9 05 82 bd fa 20 48 bd 50 ce 99 3c
       0.057020072 -0.063487716 -0.048859574 0.018775135
000100 04 2b 4d bc 86 1a 9d 3c e4 bb 6e bc a5 99 16 3c
       -0.012522463 0.019177686 -0.014571164 0.009191905
000110 4e 1c 3b bc 14 ef 67 bc 8e b4 4f 3b 45 6b 1b 3a
       -0.011420323 -0.014156122 0.0031693312 0.0005928765
000120 86 12 15 3d a1 c1 8b 3d 96 70 7b 3d fc 58 18 3c
       0.03639462 0.06824041 0.061386667 0.009298559
000130 05 e8 3e bd e1 18 b6 bd a9 ef da bd 78 93 b7 3d
       -0.04660799 -0.08891464 -0.10690243 0.08963674
000140 82 d4 4e 3d 19 fb a3 bb b0 d7 01 bd 96 ac 53 3d
       0.050495632 -0.0050042984 -0.031699836 0.051678263
000150 bd da 52 bd c8 cf 15 3d 44 a0 a1 3c 93 ab 17 bc
       -0.051478136 0.03657511 0.01972974 -0.009257215
000160 b5 45 aa bb 00 0e 98 3b ab 71 ab 3b 71 cb 54 bb
       -0.005196298 0.004640341 0.005232056 -0.0032469893
000170 9d 5e 0e 3c ce 5c 94 3b 3f db 80 bb 35 65 ae ba
       0.00868955 0.0045276647 -0.003932386 -0.0013305309
000180 30 f2 73 3c ad 71 49 3d 1d a8 e7 3d 8b f0 58 3d
       0.014889285 0.049180675 0.11311362 0.052963775
000190 61 50 d4 bd 9e a9 20 be 2d 28 01 be 17 08 0d 3d
       -0.103668936 -0.15689704 -0.12612982 0.034431543
0001a0 e0 2d 1e bd 31 76 54 3d bc 09 3d bd b8 a2 f0 3c
       -0.03861797 0.05187053 -0.04615186 0.029374465
0001b0 54 1d e1 bc b8 ab 09 3d 97 93 d5 3c b8 07 0f bc
       -0.027479805 0.03361103 0.026071353 -0.008729868
0001c0 5c 5d 1a 3c a0 0d 58 bc 14 53 1d 3c 6a 9e d8 bb
       0.009421673 -0.013186842 0.009602327 -0.0066106813
0001d0 83 d8 ce 3b 77 26 de 3b af d8 f5 ba 40 34 2c ba
       0.0063124313 0.0067794877 -0.0018756593 -0.0006569065
0001e0 86 9a 76 bc 55 79 f1 bc cb 5e 01 bd 43 e3 70 bc
       -0.01505149 -0.029476801 -0.031584542 -0.014702621
0001f0 00 ef 0d 3c e7 a8 04 3d dd 39 45 3d b2 05 40 bd
       0.008662939 0.03238764 0.048150886 -0.04688043
000200 c1 75 07 bd 6b ee 57 3c ec aa bb 3b c1 1d 99 bc
       -0.033071283 0.013179402 0.0057271626 -0.018690946
000210 72 79 b7 3c a7 1b 91 bc b0 9a 2c bc 2f 13 c4 3b
       0.022396777 -0.017713381 -0.010534927 0.005983732
000220 99 a3 81 3b bf 32 6a bb d0 8e 0e bb 16 6f ab 3a
       0.00395627 -0.0035735813 -0.0021752603 0.0013079371
000230 e0 db 93 bb 92 2d 0b bb 43 b7 b8 3a da f6 3e 3a
       -0.004512295 -0.0021236879 0.0014092702 0.00072847086
000240 18 6a 4c 3c d1 4d b2 3c 4e d8 91 3c 42 4a 8c bb
       0.012476467 0.021765621 0.017803337 -0.004281313
000250 5d 51 09 bd fa 1d 53 bd 52 5b 4c bd 79 b4 ff 3c
       -0.03352486 -0.05154226 -0.049891777 0.031213986
000260 4d f6 41 3b 0a b1 b4 3c c4 aa 10 bd 13 d6 18 3d
       0.002959627 0.022057075 -0.035319105 0.037313532
000270 0f d2 05 bd 60 62 c6 3c 3e 18 57 3c af 0f c3 ba
       -0.03267103 0.02421683 0.013128338 -0.0014881993
000280 d0 d0 a8 3b ca fa e5 bb e9 a7 f5 3b d5 75 1e bc
       0.0051518455 -0.007018422 0.007496823 -0.009671648
000290 2d 5a bc 3b fa 3e 11 3b 82 ad 0d ba 03 db 37 ba
       0.0057480545 0.002216278 -0.0005404578 -0.0007013531
0002a0 a2 cb 73 3b 7e b6 fc 3b 5d 3c 00 bb e2 0f d1 bc
       0.0037200232 0.0077121845 -0.001956723 -0.025520269
0002b0 5c 08 2f bd 9f 05 20 bd cc 16 83 bc 3f 70 7e bc
       -0.04273258 -0.03906786 -0.016002081 -0.015529691
0002c0 bb 8b 2a bd 2b f7 56 3d 38 14 3f bd 82 8a f9 3c
       -0.041637164 0.05248181 -0.04665014 0.030461553
0002d0 87 39 3a bc 50 82 a2 bb bb bc 84 bc bf 2f bb 3c
       -0.011366255 -0.004959382 -0.016203275 0.022849916
0002e0 aa 08 b5 3c f3 7c 73 bc 50 b2 53 3b 57 76 31 3b
       0.022098858 -0.014861333 0.0032302327 0.0027078593
0002f0 ee 61 d9 bb b6 19 95 3b 7e 7e 2d bb db 41 5d 3b
       -0.0066339886 0.004550184 -0.00264731 0.0033761177
000300 9e 59 cf bc c1 76 1d 3d 10 7d 7e 3d 7f c7 13 be
       -0.025311287 0.03844333 0.062130988 -0.1443157
000310 88 61 9b be 4d e3 e2 bd da 1d 72 3e 80 3a be be
       -0.30347848 -0.110785104 0.236442 -0.37154007
000320 88 66 6b be 97 d5 a2 3c 1a 54 e1 3d 68 8d 13 be
       -0.22988331 0.019877238 0.11002369 -0.14409411
000330 af 96 dc 3d 39 f1 19 bd 54 fa 3b 3c 7c dd d3 bb
       0.10770928 -0.037583563 0.011473257 -0.006465612
000340 08 13 84 3c c1 05 35 bc 5f 0d 0b bc 15 61 86 3a
       0.016122356 -0.011048735 -0.008487075 0.0010252321
000350 f6 ef f2 bb 59 21 9c bb 1b 8f b6 3a 5c 1f 17 bb
       -0.0074138595 -0.0047647175 0.0013928147 -0.0023059463
000360 21 ff fd 3c e8 1a 82 3d 0a 9e 7a 3d b9 28 9d bb
       0.031005444 0.06352788 0.061185874 -0.0047961143
000370 8e bb b1 bd b9 ea f4 bd 46 45 c6 bd 10 e0 3d 3d
       -0.08678351 -0.11958832 -0.096811816 0.04635626
000380 2b fb db bb aa f5 39 3d 6e c1 70 bd 61 ea 4d 3d
       -0.006713291 0.0454003 -0.05877822 0.05027235
000390 5b 8c f8 bc 90 0b 64 3c 0e f7 a1 3b 62 2a 69 b9
       -0.030340364 0.013918772 0.0049427813 -0.000222364
0003a0 cc a5 b5 ba c8 97 40 b8 54 0a 49 bb 20 c4 10 ba
       -0.0013858615 -4.5917724e-05 -0.0030676322 -0.0005522389
0003b0 8f ee 9f 3a 77 1d 14 3c 3b 10 e6 ba a5 73 32 3a
       0.0012201833 0.009040228 -0.0017552444 0.00068073935
0003c0 0a 13 c7 3d 30 d9 bf 3d 55 47 2d be 3b a5 93 be
       0.09720428 0.09367597 -0.16921742 -0.28836998
0003d0 f8 66 33 be 3a 4f 48 bc 44 70 10 3e dd a5 60 be
       -0.17519748 -0.01222592 0.14105326 -0.21938272
0003e0 0e 03 30 be 12 36 7f 3d 00 b3 7d 3c 23 0e 32 bd
       -0.17188665 0.062307425 0.015484571 -0.043470513
0003f0 d9 f0 42 3d 98 15 0a bd 0e ac 58 bc 04 e8 f9 3b
       0.04759297 -0.033712 -0.013224615 0.0076265354
