experiments/convex_hull/fit_filters_205/combined_weights_pinv.npy (npy, 39488 bytes, 1 tensors)

array f4 [205, 48]
0.0074044587 0.22310416 -0.058468357 0.008759982 -0.005985899 0.044268698 0.08178781 -0.03617822
0.020817934 -0.010974989 0.033669975 -0.0006759662 0.0014642677 -0.020921193 -0.031953186 0.035107236
0.027421426 -0.02113819 0.008700611 -0.008376985 0.0049713356 -0.0036599813 0.002258197 -0.058091808
0.015719166 -1.5666766 0.10891042 3.8558939 -1.9856832 -4.338578 7.2069225 3.2239845
1.7087466 -0.7131463 -2.9708006 2.0571868 7.54024 4.3849373 4.775044 10.611887
-10.32445 -6.7230887 -3.3085423 -1.2082264 -0.36848167 -0.08252176 -0.019213963 0.06254864
0.22196938 -0.6652373 -1.0508673 -0.71684426 -0.0029044678 0.37132445 0.41294608 -0.2979303
-0.15183061 0.009599943 0.06313442 -0.071110494 -0.0017834273 0.09506679 0.118721254 -0.0364962
0.038442753 -0.06843117 -0.013681185 0.1002149 0.008383644 -0.14842768 -0.054842006 0.018209023
-2.3985965 -1.3314801 -0.48508817 3.5692213 3.3594337 -6.51107 -0.9213497 -7.5601892
-2.2330704 -9.963914 3.1126702 14.177094 4.1797376 -3.67123 -9.648092 -26.156393
27.583525 17.05112 6.9117026 1.7946178 0.23727351 -0.21055657 -0.05092841 -0.03534918
-0.074430756 -0.5165222 -0.52767426 -0.15686095 0.25978616 0.38248578 0.25462726 -0.036152124
0.07766479 -0.103471816 0.058162984 -0.0045687677 -0.04494359 0.06754233 0.061184905 -0.008873968
0.03160538 -0.03329867 0.016687937 0.04090567 -0.010579297 -0.08796812 -0.019265316 -0.018761082
-0.15735202 -1.4905009 -1.030525 2.5583143 -0.21973236 -2.1033888 2.0850232 -0.31182036
0.0987554 -2.1048706 -3.4345584 -1.5125451 0.48420635 -1.4006238 5.977171 9.058381
-8.048031 -5.0062566 -2.1310058 -0.6728516 -0.15313981 -0.13034195 -0.033625044 -0.0054331673
0.20589395 0.46850285 0.7313593 0.37091792 -0.013775396 -0.17223302 -0.21048209 0.124853306
0.062399518 -0.09539186 0.060746934 -0.07684598 0.0763225 -0.07310078 -0.074353985 0.025467467
0.017234996 -0.018533923 0.06054082 -0.08216804 -0.031252515 0.16096736 0.07340384 -0.04669828
0.5569946 3.772393 -0.5975649 -3.7743595 -0.1537187 5.4206004 0.7479142 9.043918
3.3016927 14.970792 -2.3148358 -26.357607 -18.309408 5.3539457 -11.26472 -1.8979121
-4.6846867 -3.2171054 -0.46692735 0.70323175 0.4359334 0.34326106 0.08062372 -0.015904589
-0.00027060337 0.00019309865 0.00042102364 9.8898505e-05 6.3258058e-06 -0.00013277816 0.00017939956 -0.00015271643
-0.00022910559 0.00012649143 -0.00020974159 8.804836e-05 -9.797925e-05 -0.0002197856 -0.00012146085 -8.8354034e-05
-5.0115366e-05 0.00028184982 0.00077679055 -0.00050715584 -7.5383374e-05 0.00013997956 0.0001072752 1.7235658e-05
0.015740817 0.03444787 -0.028041914 -0.094327666 0.013790451 0.13818827 0.023902802 0.17273825
0.089088604 0.1730693 -0.23775496 -0.19413635 0.3644257 0.24367125 0.47155353 0.5352074
0.20896994 0.830189 0.83022517 0.489164 0.19261345 0.05166489 0.008677559 -0.0006688894
0.008749776 -0.047300205 -0.013869713 -0.02277239 0.004633091 0.0062328298 -0.004434151 0.0013585018
0.0037966773 -0.008821727 0.0074711624 -0.008562199 0.006286278 0.0089362 0.003614822 0.007885489
00000000: 1aa1 f23b 6b75 643e 847c 6fbd 0786 0f3c
00000010: 5c25 c4bb 1853 353d 5e80 a73d 9d2f 14bd
00000020: 5f8a aa3c 71d0 33bc 87e9 093d 5333 31ba
00000030: acec bf3a ec62 abbc 58e1 02bd 9bcc 0f3d
00000040: e6a2 e03c ff29 adbc 028d 0e3c 9f3f 09bc
00000050: 96e6 a23b 4cdc 6fbb 42fe 133b adf1 6dbd
00000060: 7bc5 803c dc88 c8bf 6d0c df3d f7c6 7640
00000070: de2a febf a2d5 8ac0 1c9f e640 c355 4e40
00000080: 35b8 da3f c290 36bf 9921 3ec0 f3a8 0340
00000090: a549 f140 6851 8c40 29cd 9840 4aca 2941
000000a0: f230 25c1 8b23 d7c0 28bf 53c0 2aa7 9abf
000000b0: a1a9 bcbe 2b01 a9bd 9a66 9dbc 8019 803d
000000c0: f14b 633e fe4c 2abf d282 86bf 1b83 37bf
000000d0: e258 3ebb 3d1e be3e ab6d d33e 528a 98be
000000e0: 7c79 1bbe 1449 1d3c 9e4c 813d 61a2 91bd
000000f0: e4c1 e9ba 61b2 c23d 2124 f33d 0a7d 15bd
00000100: 2676 1d3d a425 8cbd 0d27 60bc 783d cd3d
00000110: 8d5b 093c 6dfd 17be 03a2 60bd 172b 953c
00000120: 9b82 19c0 f16d aabf 7a5d f8be 1f6e 6440
00000130: f600 5740 af5a d0c0 93dd 6bbf 12ed f1c0
00000140: a0ea 0ec0 316c 1fc1 fd35 4740 61d5 6241
00000150: 69c0 8540 6ff5 6ac0 965e 1ac1 4b40 d1c1
00000160: 0fab dc41 b268 8841 ab2c dd40 09b6 e53f
00000170: d4f7 723e 249c 57be 4f9a 50bd 4dca 10bd
00000180: 276f 98bd cd3a 04bf a915 07bf 28a0 20be
00000190: b102 853e 2dd5 c33e 815e 823e 4014 14bd
000001a0: b80e 9f3d 08e9 d3bd 4f3c 6e3d 9ab5 95bb
000001b0: c516 38bd a253 8a3d 069d 7a3d 1f64 11bc
000001c0: a574 013d 3064 08bd 24b5 883c b48c 273d
000001d0: ca54 2dbc a128 b4bd 4cd2 9dbc d7b0 99bc
000001e0: e320 21be bcc8 bebf 3ee8 83bf 6cbb 2340
000001f0: 8501 61be ec9d 06c0 0571 0540 eba6 9fbe
00000200: 4540 ca3d 33b6 06c0 cecf 5bc0 149b c1bf
00000210: e5e9 f73e a447 b3bf fc44 bf40 21ef 1041
00000220: bcc4 00c1 4133 a0c0 6662 08c0 0140 2cbf
00000230: afd0 1cbe 5c78 05be 6aba 09bd b608 b2bb
00000240: ddd5 523e 9bdf ef3e 5d3a 3b3f f4e8 bd3e
00000250: 33b2 61bc da5d 30be 9e88 57be 17b3 ff3d
00000260: a396 7f3d cf5c c3bd c7d1 783d 6d61 9dbd
00000270: f94e 9c3d ddb5 95bd e746 98bd 26a1 d03c
00000280: 6830 8d3c 74d4 97bc a7f9 773d b847 a8bd
00000290: a302 00bd a1d4 243e c154 963d b246 3fbd
000002a0: 3397 0e3f e36e 7140 03fa 18bf 1b8f 71c0
000002b0: 6f68 1dbe 8f75 ad40 4e77 3f3f e3b3 1041
000002c0: ef4e 5340 5d88 6f41 4526 14c0 61dc d2c1
000002d0: ab79 92c1 8653 ab40 4b3c 34c1 c9ee f2bf
000002e0: f4e8 95c0 0ee5 4dc0 1a11 efbe ff06 343f
000002f0: aa32 df3e eabf af3e 0d1e a53d 574a 82bc
00000300: c5df 8db9 867a 4a39 d6bc dc39 bb67 cf38
00000310: 4242 d436 5e3a 0bb9 341d 3c39 8122 20b9
00000320: 103c 70b9 c9a2 0439 14ee 5bb9 9aa6 b838
00000330: 367a cdb8 3f76 66b9 ccb8 feb8 b64a b9b8
00000340: f732 52b8 3ec5 9339 88a1 4b3a a7f2 04ba
00000350: 2417 9eb8 7ac7 1239 eff8 e038 4b95 9037
00000360: e3f2 803c 3619 0d3d 28b8 e5bc dd2e c1bd
00000370: 58f1 613c 3a81 0d3e cfcf c33c 4ce2 303e
00000380: 1674 b63d 1439 313e 0976 73be aecb 46be
00000390: 0196 ba3e f584 793e 776f f13e 5a03 093f
000003a0: 37fc 553e 4487 543f a389 543f b473 fa3e
000003b0: 763c 453e 909e 533d 522c 0e3c 6858 2fba
000003c0: 385b 0f3c dcbd 41bd cb3d 63bc 2a8d babc
000003d0: 2fd1 973b c43c cc3b 5b4c 91bb c20f b23a
000003e0: add1 783b 0189 10bc a7d0 f43b 7748 0cbc
000003f0: 1ffd cd3b 2469 123c a6e6 6c3b 2332 013c
