experiments/convex_hull/fit_filters_395/optimized_weights.npy (npy, 75968 bytes, 1 tensors)

array f4 [395, 48]
0	0xbbfb2404	-0.0076642055
1	0x3e20ad39	0.15691079
2	0xbe27e41c	-0.1639561
3	0x3e8a7ef5	0.27049986
4	0xbe90a394	-0.282498
5	0x3d971cab	0.07378515
6	0xbe1ec645	-0.15505321
7	0x3d4cb6fd	0.0499792
8	0xbdb10915	-0.086443104
9	0x3d16665d	0.036718715
10	0xbe0b5b5b	-0.13609068
11	0x3d39f324	0.045397893
12	0xbd73d34b	-0.059527677
13	0xbd660788	-0.056159526
14	0xbc95b1db	-0.018273285
15	0x3d9518f8	0.07280153
16	0x3cb749d7	0.022374077
17	0xbc47bb6f	-0.012190684
18	0xbc442be1	-0.011973352
19	0x3c80e3b7	0.015733583
20	0xbc01655f	-0.007897704
21	0xbbb0ffbb	-0.005401579
22	0x3ad55b30	0.0016277786
23	0xbb0fa219	-0.0021916686
24	0xbdb8cf9a	-0.09023972
25	0xbd92572e	-0.071455345
26	0xbca27ab2	-0.019833896
27	0x3d06ddb1	0.032926265
28	0x3d410d70	0.047131956
29	0x3d09cecc	0.033644482
30	0x3c10e6ea	0.008844117
31	0xbaabf852	-0.001312027
32	0x3b0a41f5	0.0021096442
33	0x3b116303	0.002218426
34	0x39ddf7ef	0.0004233713
35	0xbb8bc2ce	-0.004265166
36	0x3bb9e98b	0.0056735924
37	0xbb343148	-0.0027495194
38	0xb9395f1f	-0.0001767841
39	0xb8d2d972	-0.00010054083
40	0x3923a7df	0.00015607428
41	0xba96de63	-0.0011510368
42	0xbb1e30b2	-0.0024137911
43	0x3b928e8d	0.00447256
44	0xbb0d55c5	-0.0021566015
45	0xbc16d2db	-0.009205545
46	0xbb46c55a	-0.0030330033
47	0xb9fec148	-0.0004859066
48	0xbe1f2042	-0.15539649
49	0x3e1ffedb	0.15624563
50	0x3d8a7b79	0.06761832
51	0x3e1abbe5	0.15110739
52	0x3ba07f53	0.0048979907
53	0xbd6f2b8b	-0.058391135
54	0xbd6b5b99	-0.0574604
55	0x3cc041a4	0.0234688
56	0x3c6c1f4a	0.014411757
57	0xbb49504e	-0.0030718031
58	0x3af5f1ba	0.0018764057
59	0xbd00d49c	-0.03145276
60	0xbc0815b8	-0.008305959
61	0xbbbaef46	-0.005704793
62	0x38922ca3	6.970137e-05
63	0xbb8c176d	-0.0042752535
64	0x3a390680	0.00070581585
65	0x3c0baade	0.008524625
66	0x3ba89c76	0.0051456047
67	0xbb7b824e	-0.0038377228
68	0x3ab71e4e	0.0013970823
69	0x3a8a8eb5	0.0010571094
70	0x3a938448	0.0011254633
71	0x3b791aac	0.0038010282
72	0x3e8faabc	0.28059947
73	0xbe2a8be6	-0.1665493
74	0xbec1dd98	-0.37864375
75	0x3d4d6685	0.0501466
76	0x3ec3add8	0.3821857
77	0x3e21b429	0.15791382
78	0xbe2ad7a0	-0.16683817
79	0x3e440ece	0.19146273
80	0xba8153d8	-0.0009866906
81	0x3d929c89	0.07158763
82	0xbc2359a6	-0.009970104
83	0xbd732e48	-0.05937031
84	0x3d57ef0a	0.0527182
85	0x3ae36483	0.001734868
86	0x3d056eb7	0.03257629
87	0xbc7428a0	-0.014902264
88	0x3b195454	0.002339621
89	0x3bb3bb33	0.0054849624
90	0xbc836454	-0.016039051
91	0x3c09bad9	0.008406364
92	0xba3fd6bd	-0.000731807
93	0x3b3dab66	0.0028941273
94	0x3a2fc249	0.0006704671
95	0x398aed78	0.0002649834
96	0x3f6f03ee	0.9336537
97	0x3f754895	0.95813876
98	0xbfaac79d	-1.3342167
99	0x400b9f0a	2.181582
100	0xc01e7002	-2.4755864
101	0x3fabbda4	1.3417249
102	0xbf4387d8	-0.76379156
103	0x3eba88af	0.36432406
104	0xbf2071a8	-0.62673426
105	0xbefe90b1	-0.49719766
106	0xbe9203de	-0.28518575
107	0xbc163b22	-0.009169372
108	0xbe567508	-0.20943081
109	0xbe87b52d	-0.26505414
110	0x3e9585a4	0.29203522
111	0x3e750f9d	0.23931737
112	0xbdf90a6e	-0.121601924
113	0xbd8ec16e	-0.069704875
114	0xbc44db9d	-0.0120152505
115	0xbd42bedc	-0.0475453
116	0x3ba8660e	0.005139119
117	0x3d97b640	0.07407808
118	0x3cc331d8	0.023827478
119	0x3b9b10e1	0.0047322367
120	0x3d817052	0.063202515
121	0x3e9697ee	0.29412788
122	0x3eb84b6f	0.3599505
123	0x3e6238e6	0.22092018
124	0xbb0f1cf3	-0.0021837323
125	0xbe319476	-0.1734179
126	0xbe7311d9	-0.23737277
127	0x3e5ae19d	0.21375127
128	0x3e0d22ef	0.13782857
129	0xbd6b715e	-0.057481162
130	0x3b88c882	0.004174293
131	0x3c8cb2a4	0.017175026
132	0xbca13fbc	-0.019683711
133	0x3ccbfb23	0.024900025
134	0x3d025a6f	0.031824525
135	0xbd2fe625	-0.042944092
136	0xbd14d36c	-0.03633444
137	0x3cd375b1	0.025812956
138	0xbcf26f89	-0.0295942
139	0xbb208c49	-0.002449768
140	0xbbd835bf	-0.006598204
141	0x3d8cb5e5	0.06870631
142	0x3ca9297c	0.020649664
143	0x3bb70af8	0.0055860244
144	0x3c4b4521	0.012406618
145	0xbd356e28	-0.044294506
146	0xbda86f6d	-0.08224378
147	0x3d190001	0.03735352
148	0xbd711942	-0.05886198
149	0x3d57bccc	0.052670285
150	0xbbf1b4cb	-0.0073762885
151	0xbb87d01c	-0.0041446816
152	0xbd0e548e	-0.034748606
153	0x3c3a33be	0.011364875
154	0xbd0fe545	-0.035130758
155	0x3cd1d897	0.025615973
156	0xbcc900ee	-0.024536576
157	0x3bb9cd16	0.0056702
158	0x3c6984d0	0.014252856
159	0x3c250124	0.010071073
160	0x3b2efb16	0.0026699952
161	0xbbfafb5c	-0.007659359
162	0x3c2f5d50	0.0107034
163	0xbc829db8	-0.015944347
164	0x3b12f2db	0.0022422585
165	0xbb414f5a	-0.002949676
166	0x3b1865e5	0.0023254093
167	0x3995d1d6	0.00028575835
168	0x3e6754bc	0.22590917
169	0x3dab7cd4	0.083734185
170	0xbe30e8dc	-0.17276329
171	0xbe97123a	-0.29506093
172	0xbe40bd0d	-0.18822117
173	0xbc522be4	-0.012827847
174	0x3dc98997	0.09840696
175	0xbdc326a5	-0.09528855
176	0xbd80e4df	-0.06293654
177	0x3d1f607c	0.038910374
178	0xbd3e5c6d	-0.046474863
179	0x3d62cba3	0.055369984
180	0xbd371427	-0.044696953
181	0x3c7bed78	0.015376441
182	0xbc3eaae0	-0.011637419
183	0x3cc9f276	0.024651747
184	0x3caeb24c	0.021325253
185	0xbc790bf8	-0.0152006075
186	0x3c0689f3	0.008211601
187	0xbbe7476b	-0.007058074
188	0x3aabfa64	0.0013120887
189	0x3bc72ab8	0.0060780905
190	0xbb87b5e9	-0.0041415584
191	0x39ba8371	0.00035574616
192	0xbf060851	-0.5235644
193	0x3e22044d	0.15821953
194	0x3d857bd2	0.065177575
195	0x3f2778d6	0.65418756
196	0x3df1bd6f	0.1180371
197	0x3e425e61	0.18981315
198	0xbd91e577	-0.07123845
199	0x3d100650	0.03516227
200	0x3c2104c6	0.009827798
201	0xbd9d45a2	-0.07679297
202	0x3ca0cadb	0.019627979
203	0xbdef0fcb	-0.11672934
204	0x3c395377	0.0113114035
205	0xbd945239	-0.07242245
206	0xbc2c225b	-0.010506238
207	0x3cd83b20	0.02639538
208	0xbbaf3d3d	-0.0053478763
209	0x3c9b47b7	0.018955095
210	0x3c4140cc	0.011795234
211	0xbcf0dd8d	-0.029402519
212	0xbce952d7	-0.028481884
213	0x3c4fbd0b	0.012679349
214	0x3cbd0a9d	0.02307635
215	0x3b88e088	0.004177157
216	0x3fcd9f30	1.6064205
217	0x3edf6f98	0.43639827
218	0xbf97366e	-1.1813486
219	0xbf7d4721	-0.9893666
220	0xbf47c1bd	-0.78029996
221	0x3e4ea0e4	0.20178562
222	0x3f15ef58	0.58568335
223	0xbe40d9dd	-0.18833108
224	0xbd13d683	-0.036093246
225	0xbdc8ad83	-0.0979872
226	0x3da4bd1e	0.08043884
227	0x3e256a2e	0.16153786
228	0xbe184cec	-0.14873093
229	0x3d268776	0.04065653
230	0xbb214cc7	-0.0024612413
231	0x3d344ed3	0.044020485
232	0xba9a1203	-0.0011754635
233	0xbc10f788	-0.008848079
234	0xbc0cc291	-0.00859131
235	0xbbdae722	-0.006680385
236	0x3c4880d1	0.0122377435
237	0x3d6e54de	0.058186404
238	0xbbf26e35	-0.0073983916
239	0x3a19717d	0.0005853398
240	0xbec71aa3	-0.3888751
241	0xbf509546	-0.81477773
242	0xbefff5cf	-0.49992225
243	0x3dcb5204	0.099277526
244	0x3e807019	0.25085524
245	0x3ecca14b	0.39966807
246	0xbcb3bb4e	-0.0219399
247	0xbd3faf73	-0.04679818
248	0xbce6959f	-0.028147517
249	0x3d95e481	0.07318974
250	0xbe4f3d71	-0.20238282
251	0x3dcbb970	0.09947479
252	0xbde62c89	-0.11238963
253	0x3c83021d	0.015992219
254	0x3c023674	0.007947553
255	0x3d430647	0.04761341
