experiments/convex_hull/recon/recon_combined_weights_pinv.npy (npy, 32128 bytes, 1 tensors)

array f4 [200, 40]
000000 81 25 62 3e 1a 11 f3 be d5 3a 17 bd 40 62 98 3f
       0.22084619 -0.47473985 -0.03692134 1.1904984
000010 50 b6 1f 3f 81 ac da bf 6e 36 c7 3f f4 4e ba 3f
       0.6238756 -1.7083894 1.5563486 1.4555345
000020 39 07 13 40 29 38 51 3e 85 ca 00 c0 6d c0 b6 3f
       2.2973158 0.2043158 -2.0123608 1.4277474
000030 64 98 a7 be f3 b0 f7 3f 58 db cb bf f0 d6 ff 3e
       -0.32733452 1.9350876 -1.5926313 0.49968672
000040 58 87 bf bf db 77 6f 3f 73 8c c4 3e 28 ae 8a 3d
       -1.4963179 0.9354226 0.38388404 0.06771499
000050 03 c9 71 3d 67 ff bb bc 94 9f ae bc 01 55 1d bb
       0.05902959 -0.022948934 -0.021316327 -0.0024006965
000060 64 cc e6 3c 9b fb 3f bd 23 9a 92 bc 46 9e 29 bc
       0.028173633 -0.04687081 -0.017895764 -0.010352677
000070 88 c4 64 ba 6d 5f 15 3d cd d7 79 bc 5f 4c 29 bd
       -0.0008726795 0.03646796 -0.015249205 -0.0413326
000080 55 cc 0a bd b7 84 31 bd d9 83 fd 3c 09 23 84 bd
       -0.033886272 -0.043339457 0.030946659 -0.06451995
000090 d6 7b 1c 3d 42 0f c8 bb cb 7f cf bb 6b 36 26 bc
       0.038204037 -0.0061053345 -0.006332373 -0.01014481
0000a0 34 7c b5 3d d5 31 1d 3c 66 d3 93 3e d4 dc d1 bd
       0.088615805 0.0095944 0.28872222 -0.10247198
0000b0 55 8f 00 bf 79 c1 9f 3e fa c2 27 bf a8 00 1f bf
       -0.5021871 0.31202295 -0.65531886 -0.62110376
0000c0 8d 5e 34 bf 37 02 5f bf 79 bc 22 3f 05 f3 3f 3f
       -0.70456773 -0.87112755 0.63568836 0.74980193
0000d0 cf 15 ec 3e 09 09 fc 3c 68 e1 1f be 6e ea 6a bf
       0.4611039 0.030766027 -0.1561333 -0.9176396
0000e0 9e fe 96 3e c7 75 6e 3f 20 69 0d 3f b7 34 be 3e
       0.29491132 0.93148464 0.55238533 0.37149593
0000f0 44 73 1a be 75 17 82 bd 51 84 b9 3c 56 5a 34 3c
       -0.15083033 -0.0635213 0.022646101 0.011007866
000100 dc 55 80 3b 61 76 82 3d d2 65 79 3d 9c f2 d8 bb
       0.0039164852 0.06370235 0.06088812 -0.006620718
000110 b5 16 44 3d e5 4c b7 bd 2e f2 09 3d 22 f1 0d 3d
       0.047873218 -0.08950213 0.033678226 0.03465379
000120 e5 2b fc 3c 19 5c b0 3c 7c ad 8a bc aa 9f b5 3c
       0.03078265 0.02152829 -0.016928427 0.02217086
000130 05 01 f1 bc 74 50 20 3d 59 ee 36 bc 2b 5e 89 3d
       -0.029419431 0.039139226 -0.011165225 0.06707414
000140 d9 84 87 bc d4 9e 3e be b4 7b 29 3d 12 98 04 3f
       -0.016542839 -0.18615276 0.041377738 0.5179454
000150 04 72 3f bf 8d 24 74 bf 06 91 05 c0 0e df a8 3f
       -0.7478335 -0.9536827 -2.0869765 1.3193071
000160 74 51 73 c0 44 71 ab 3f e1 76 a4 40 d0 ed 37 bf
       -3.8018465 1.3393941 5.1395116 -0.7184725
000170 87 36 9c 40 27 c4 f8 3e 26 52 0b c0 5f 2a c2 3f
       4.881656 0.48587152 -2.176889 1.5169181
000180 85 7b 02 40 11 77 93 bf 78 a5 7f 40 2b 5e 09 bf
       2.038789 -1.1520711 3.9944744 -0.53659314
000190 46 cd 2c bd f5 06 d8 bc 2f 2d 16 3c b3 54 52 3d
       -0.04218795 -0.026370505 0.009166046 0.051350307
0001a0 ee 28 68 3d c5 96 0a 3c 04 d6 20 3c 64 06 26 3d
       0.05667966 0.008458798 0.00981665 0.04053344
0001b0 8e 18 a3 bd 1c 35 3f bd eb 76 03 be f6 72 24 bd
       -0.07963668 -0.04668151 -0.12838332 -0.040148698
0001c0 ce 15 7b bd ad 15 f7 3c ab 74 9e 3c 7b 3f 56 3d
       -0.06130009 0.030161703 0.019342741 0.052306633
0001d0 d5 5c 7e 3b 30 53 c9 bd 03 26 49 bd 1a 4c cf bd
       0.0038812656 -0.0983032 -0.049108516 -0.10121937
0001e0 7d e5 46 be ea 3d 0b bd 8a 90 59 3e 9d 7b fa 3d
       -0.1942348 -0.033994593 0.21246544 0.122306086
0001f0 51 0c 99 be 8e a0 81 be b0 1e ac be 19 ad ba 3e
       -0.2989221 -0.25317806 -0.33617163 0.36460188
000200 82 2a b2 be 4a 7c b7 3e f2 27 ba 3e 2f 80 22 be
       -0.34798056 0.35837013 0.363586 -0.1586921
000210 6e 7f b7 3e f2 e3 2a 3e d5 ff 60 be 5e e3 c1 3e
       0.3583941 0.16688517 -0.21972592 0.3786878
000220 50 b5 15 3e 31 9f 72 be f3 de d9 3e 7a b0 08 be
       0.14619946 -0.23693539 0.4255291 -0.1334857
000230 76 7a 97 3d 1b 37 0c 3e 72 9f 10 3e dd 0d b8 3d
       0.073964044 0.13692896 0.14123324 0.08987019
000240 b2 ea 60 3d d0 da 6e bd db da 95 bd 49 29 1c bc
       0.054911323 -0.058314145 -0.07317134 -0.0095313275
000250 6e 4b 58 bc 2c d2 c4 3d b8 c5 55 3a 32 43 25 3d
       -0.013201578 0.096103996 0.00081547676 0.040347286
000260 30 f8 50 bd d9 8c fe 39 c9 b4 8c 3d e3 f0 14 3c
       -0.05101794 0.00048551595 0.068704195 0.009090635
000270 bd 7c 34 3d 5d c2 3a 3d 4a 62 76 bd 2d 17 85 bd
       0.044064272 0.045595516 -0.06015233 -0.06498561
000280 bb 93 cd 3c e2 68 ee 3d e6 a3 9c be 46 c4 bb be
       0.025094857 0.116410986 -0.30593795 -0.36673182
000290 6c ea 2a 3f 93 ff 2b 3f 44 da 8c 3f 8d 3d 67 bf
       0.6676395 0.6718685 1.1004109 -0.90328294
0002a0 82 48 b8 3f 68 99 5e bf e4 2d b6 bf fc da d4 3e
       1.4397128 -0.8695283 -1.4232755 0.41573322
0002b0 83 e5 5b bf ea 93 bf be 7c 97 a5 bd 2c e1 7e bf
       -0.8589708 -0.37417537 -0.08085534 -0.99562335
0002c0 78 bb 47 bf 08 8f 38 3f 55 e8 30 bf 36 0a ab 3e
       -0.7802043 0.7209325 -0.6910451 0.33406228
0002d0 01 b5 8b 3d cd fa de bd e9 fd b7 3c 91 5d b2 bc
       0.06821633 -0.1088768 0.022459941 -0.021773132
0002e0 b1 9b bf 3c 9e eb 4b 3d 24 d6 8e 3b e2 a1 aa ba
       0.02338967 0.04978525 0.0043590236 -0.0013018216
0002f0 2a 9e ea bc 5c 9b 65 3d 61 20 b9 bd 5d 30 a8 bc
       -0.028639872 0.056056365 -0.09039379 -0.020530874
000300 d5 f3 69 bd b6 6c 3d bc 68 f2 61 3d 5e de 23 3d
       -0.057117302 -0.011561563 0.055162817 0.040006988
000310 d3 ff 5e 3c 54 8b b3 bb 02 77 e7 bc 89 4c 5c bd
       0.013610798 -0.0054792557 -0.02825499 -0.053783927
000320 9f 6c 35 3d 2e aa ae 3d 78 8f 07 3e 7b b9 c3 be
       0.044293042 0.08528553 0.13238323 -0.38227448
000330 10 9a be 3e 9c d9 32 3f e8 d7 b5 3f 94 0a 5a bf
       0.37226915 0.69863296 1.4206514 -0.8517239
000340 4e 46 2d 40 9c 7f 23 bf 32 60 62 c0 ae 81 17 3d
       2.707416 -0.6386659 -3.5371213 0.036988907
000350 be ca 42 c0 37 3d 16 bf 73 19 79 3f 78 64 38 bf
       -3.0436244 -0.58687156 0.9730446 -0.72028303
000360 d0 75 c4 bf ea 1d 89 3e e8 3f 10 c0 f5 b9 3d 3e
       -1.5348454 0.26780635 -2.2539005 0.18527968
000370 07 1d f2 3d 0a 56 be 3b 60 f0 f3 bd a9 29 68 3d
       0.11821943 0.0058085965 -0.11911082 0.056680355
000380 2f f0 65 bc 6b f1 bb bd 25 8d d5 bb d2 a0 09 3e
       -0.014034315 -0.09176906 -0.00651707 0.13440254
000390 e4 f9 1e 3d bc 35 21 3d 62 a0 b1 bc 99 64 22 bd
       0.038812533 0.039357886 -0.021682922 -0.03964672
0003a0 80 18 f7 3c 19 9d 20 3d 68 42 5a 3d b2 21 35 3d
       0.03016305 0.03921232 0.053285986 0.044221587
0003b0 73 83 50 3d a6 13 ef bc fc 90 75 bc 6f 16 fb 3b
       0.05090661 -0.029184174 -0.01498818 0.0076625864
0003c0 51 40 c6 bc f8 9e 93 bd 7c 41 cf be b7 e0 5c 3e
       -0.02420059 -0.07208055 -0.40479648 0.21570097
0003d0 29 7c 98 3e 88 f5 ef be 67 f8 48 be 77 ad 46 3f
       0.29782227 -0.46867013 -0.19626008 0.77608436
0003e0 e3 4b 6c bf 92 4f 77 3f b5 89 c0 3f 32 31 3c bf
       -0.92303294 0.9660579 1.5042025 -0.73512566
0003f0 d0 7a b6 3f d1 6f b0 3d 96 b2 07 bf 0c 96 86 3f
       1.4256229 0.08615077 -0.53006876 1.0514541
