experiments/convex_hull/fit_filters_480/optimized_weights.npy (npy, 92288 bytes, 1 tensors)

array f4 [480, 48]
00000000: e1bd bcbb 4336 00bb 38fe c93b 0f61 d83c
00000010: d94d 453d 8199 253d 3f62 903b c98c ee3c
00000020: db84 2f3d 2583 22bd df2e dc3c 1f70 58bc
00000030: aa17 a23b 5527 4ebb 69a3 d1ba 663e cfbb
00000040: 9f16 6cbc 81b6 7c3c e2d8 dfbb 9dd4 3e3b
00000050: 654f 4eba 34bc 0d3a c9c8 073b 7218 cd38
00000060: 458a 513d 95cf 263d 43e7 aebd ae53 a0bd
00000070: 4c4f 3a3d 1659 be3d 371b 853d 2ca4 ffbc
00000080: 7578 163c 541c 3ebd a7a7 573d 77ae 13bd
00000090: 9c9c bf3c 03b4 81bc 6bd8 22ba 0ccb 59bc
000000a0: a5ab 2bbc 5169 683b 3f5e 29bb b414 e63a
000000b0: 9980 46bb a5f0 503a f468 673b 8e69 883a
000000c0: 655d 5abd 6e54 c7bd 6193 42be 90d6 bebd
000000d0: bf46 253e 5e30 903e eaf5 853e d424 b3bd
000000e0: db63 1c3d fa59 9cbd f5d7 a83d 5b6f 7cbd
000000f0: db32 593d 5d17 81bd e314 2bbd 0664 7f3c
00000100: 706f 34bc 474a 9a3c 164e 55bc 7553 153c
00000110: e4b0 26bc d442 5bbc b91f 343b a560 ae39
00000120: ad7e 113d 85f1 8a3d 7fe2 663d e7f5 2d3c
00000130: b07b 1ebd 39be a5bd 1540 c1bd 909b ab3d
00000140: 8f96 503d 8857 10bc 35f4 e7bc c127 4b3d
00000150: 2c42 50bd 457e 1c3d ce20 9c3c 4211 0bbc
00000160: 6179 9cbb 2ac0 8c3b b655 b53b 58a6 a4bb
00000170: a6c7 243c 0a58 7c3b 99db 62bb d9aa b8ba
00000180: 2ad5 0c3d 735f 5c3d 9cae 9f3d e3d3 e03c
00000190: e99c c4bd b9df e8bd a9ca bcbd d1ea d23c
000001a0: df96 17bd 201c 2e3d eb1e 29bd 4a51 ed3c
000001b0: 5640 cdbc 876d d23c 0416 9d3c 54dd c1bb
000001c0: 8f1e 0f3c 293a 3fbc afa1 153c a0de d2bb
000001d0: ee8e a83b a29f b53b cd5d c8ba 5d02 fcb9
000001e0: c501 3dbc 5420 b8bc 08db d4bc 0195 76bc
000001f0: b05f 603b 71c7 c43c 4d81 173d 7a62 1ebd
00000200: 76e4 06bd 8627 723c b77f 6f3b 7f8e 83bc
00000210: 86c6 9d3c 5fbb 88bc 7f51 18bc c3a0 a93b
00000220: 2847 653b 0434 4fbb 0cb0 1bbb ef06 1d3b
00000230: fd24 a3bb 34f7 d1ba 54db 8b3a 0004 453a
00000240: a37d 593c 29ed b53c a34d 913c 31cd c1bb
00000250: dd29 0dbd d450 55bd 8e46 4cbd 4e72 f83c
00000260: e930 e33a 241c b83c 89b7 10bd 03d7 183d
00000270: 12d2 05bd d365 c63c 89f5 573c c855 cbba
00000280: 27fe aa3b defe e8bb b689 f63b 2776 1ebc
00000290: 095d bc3b 05bf 103b 1269 1aba 27b7 39ba
000002a0: 6876 763b 3eb7 ec3b 7f9e 71bb a60c d4bc
000002b0: 831f 2fbd 26f1 1fbd 3f99 71bc 1495 88bc
000002c0: ed9a 2abd cc0c 573d 8119 3fbd de91 f93c
000002d0: 4893 38bc e0f1 a5bb e8bc 84bc ea2f bb3c
000002e0: aa08 b53c 827e 73bc 35aa 5c3b f8de 243b
000002f0: fb70 d9bb d2d0 943b f3e9 2dbb 10a4 5c3b
00000300: 9e99 8dbc 0063 5a3d e10d a83d ef02 1ebe
00000310: 0150 acbe 8c11 21be c972 593e 70e5 c0be
00000320: 2137 80be d891 223d d27f d03d bb96 12be
00000330: e135 da3d 5e9b 03bd 3b4a 933c 9498 13bc
00000340: da36 983c 0507 75bc 1436 d1bb 85e9 c339
00000350: a092 d8bb 3e55 49bb 56d6 fa39 39e5 1cbb
00000360: 571e d53c be6b 593d 2395 493d c3dc 39bc
00000370: 43f1 afbd e551 e3bd 0759 a8bd 0964 f83c
00000380: 5e2d a3bc c9a7 563d 2783 70bd 0a26 373d
00000390: 58d7 babc c0d7 fb3b cde6 833a abc0 123b
000003a0: e515 063a a700 f1ba 33f1 47bb a523 9cb7
000003b0: d0b0 4eba cdab 083c 1aa2 bbba bf75 5f3a
000003c0: 2334 b03d 538e a43d 96b1 36be a590 91be
000003d0: 47ed 0bbe e4d0 e73c 2128 223e 9d65 57be
000003e0: 351f 1cbe de3b 373d 9953 b93c 57d9 36bd
000003f0: f1ac 473d bfdc 1bbd 72aa 9cbc 18b5 223c
-0.00575994 -0.0019563593 0.0061643384 0.026413469 0.048169944 0.040429596 0.004406243 0.029119866
0.04285131 -0.03967585 0.026877819 -0.0132103255 0.0049466686 -0.003145655 -0.0015994135 -0.006324577
-0.01440969 0.015424372 -0.0068312744 0.0029118427 -0.0007870107 0.00054067676 0.0020719043 9.779715e-05
0.051157255 0.04072531 -0.085402034 -0.07828461 0.04548578 0.092943355 0.064993314 -0.031206213
0.009183993 -0.046413735 0.05265012 -0.036055055 0.023390107 -0.015832907 -0.00062120584 -0.013293039
-0.010477935 0.0035463164 -0.0025843529 0.0017553777 -0.0030289053 0.0007970429 0.003531036 0.0010407434
-0.053311724 -0.097329006 -0.19001533 -0.09318268 0.16140269 0.281619 0.2616418 -0.08747259
0.038181167 -0.07634349 0.082443155 -0.061629634 0.053027015 -0.06303284 -0.041767966 0.015587812
-0.011012897 0.018834246 -0.013019105 0.009114136 -0.01017401 -0.013382632 0.0027484728 0.00033259872
0.035521198 0.067843474 0.056368347 0.01061771 -0.038692176 -0.08092923 -0.09436051 0.083792806
0.050924834 -0.008809932 -0.02831469 0.04959846 -0.050844356 0.038206358 0.019058611 -0.008488001
-0.0047752117 0.0042953687 0.005533899 -0.0050247125 0.0100573655 0.0038504624 -0.0034615754 -0.0014089003
0.034382977 0.053801965 0.07796976 0.027444785 -0.09600241 -0.11370797 -0.09218342 0.025746735
-0.037009116 0.04250729 -0.04128925 0.028969426 -0.025055092 0.025686992 0.019175537 -0.005916277
0.008735313 -0.011671581 0.009132787 -0.0064352304 0.0051439917 0.0055427114 -0.0015286744 -0.00048066946
-0.011536066 -0.022476353 -0.025983348 -0.015050174 0.0034236722 0.024020882 0.036988545 -0.038668133
-0.03293272 0.014779931 0.003654463 -0.016059158 0.019259702 -0.016690908 -0.009296774 0.005176635
0.003498504 -0.0031616697 -0.0023756055 0.0023960432 -0.0049787746 -0.0016019107 0.0010670223 0.00075155497
0.013274583 0.022207813 0.017737215 -0.0059143533 -0.034463752 -0.052079037 -0.049871974 0.030327942
0.0017333302 0.022474356 -0.035331283 0.037314426 -0.03267104 0.024218475 0.013181099 -0.0015513236
0.0052182856 -0.0071104607 0.0075237406 -0.009671724 0.0057483953 0.0022086513 -0.00058902905 -0.0007084482
0.0037607197 0.0072239926 -0.0036868153 -0.025884937 -0.04275466 -0.039048336 -0.014746009 -0.016672648
-0.041651655 0.05250244 -0.04665518 0.030465063 -0.011265583 -0.005064234 -0.016203359 0.022849996
0.022098858 -0.014861705 0.0033670787 0.0025157314 -0.006635783 0.004541495 -0.002653715 0.0033667125
-0.017285164 0.05331707 0.08205772 -0.15430807 -0.33654788 -0.1572935 0.21235193 -0.37675047
-0.2504206 0.03968987 0.1018063 -0.14315312 0.10654808 -0.03213059 0.017979732 -0.009008545
0.018580843 -0.014955287 -0.0063846204 0.00037367284 -0.006609276 -0.0030720974 0.00047843409 -0.0023940338
0.026015444 0.053081267 0.049214493 -0.011344138 -0.08590939 -0.110996045 -0.082201056 0.030321138
-0.019919094 0.052406106 -0.058718827 0.04471401 -0.022807762 0.0076856315 0.0010063291 0.002239267
0.0005114957 -0.0018387035 -0.0030508756 -1.8613247e-05 -0.00078846235 0.008341742 -0.0014315278 0.00085243204
0.08603694 0.08034959 -0.17841181 -0.28430668 -0.13664733 0.028297849 0.1583562 -0.21034856
-0.1524628 0.04473483 0.02262287 -0.044640865 0.048748914 -0.038052317 -0.019124243 0.009930871
