experiments/convex_hull/fit_filters_566/optimized_weights.npy (npy, 108800 bytes, 1 tensors)

array f4 [566, 48]
-0.06963757 -0.058800843 0.0010231789 0.036608852 0.038095377 0.043643955 0.061071776 -0.06752607
-0.04110666 -0.009087987 0.047279786 -0.05420777 0.03685027 -0.01676538 -0.006587483 0.0014189541
-0.007601591 0.011892269 -0.0024674167 -0.005724964 -0.00837 0.00012697757 0.00420562 0.0010015266
0.34540606 0.26820472 -0.25776 -0.3960871 -0.18603222 0.005955847 0.08338405 -0.10594141
-0.06660516 0.019480454 -0.01361531 0.02890181 -0.0143326605 -0.014469503 -0.012231069 -0.007354966
-0.005855001 -0.0074986247 0.0062974794 -0.007995063 0.00037032072 0.015684115 -0.00023353212 0.00056209805
0.008526302 0.010210003 -0.002979409 -0.025922395 -0.04182922 -0.03808492 -0.014855153 -0.017259931
-0.04296433 0.05191645 -0.043258246 0.023180772 0.00046453968 -0.019803729 -0.028673915 0.026744813
0.016174115 -0.0035867956 -0.00594346 0.008356655 -0.0052954503 -0.001095777 0.001106523 -0.0012241752
0.002997023 -0.003141761 -0.013901095 -0.018285818 -0.012778173 -0.0039889086 0.0025929625 -0.007947086
-0.010201079 0.009170227 -0.0067184777 0.0039780443 -0.0011353953 -0.0006796353 -0.00091854646 0.0005988582
5.3509622e-05 -0.00072346255 0.0007144396 -0.00048074912 -0.0015545456 -0.00022363492 -0.00082197506 -0.00066475396
-0.06529689 -0.04866469 0.063045174 0.16032927 0.1533844 0.06856802 -0.030420078 0.09366702
0.10011862 -0.06583258 0.027605254 -0.011164096 0.010760928 -0.01115766 -0.0054567526 -0.0044886484
-0.008400811 0.010825286 -0.009122145 0.007983154 -0.0025633622 0.0025919492 0.0051192613 0.00030096833
0.009082178 0.0028543079 0.03330031 0.10190209 0.094025716 -0.0016142144 -0.07683076 0.06796818
0.034362063 -0.026786227 0.035505623 -0.032293368 0.012428015 0.0065895845 0.009844504 -0.0058567426
-0.0033540642 0.009106544 -0.013169799 0.0133233555 -0.0018982583 0.0043389825 0.0012607279 0.0012276114
0.043643314 0.1363302 -0.040157113 -0.17337802 -0.18328927 -0.117055684 0.023228103 -0.091975875
-0.09464896 0.06892114 -0.026279153 0.01585189 -0.014996777 0.010257006 0.00693268 0.005044174
0.010583026 -0.01306552 0.009551276 -0.004679389 0.00064214907 0.001480419 -0.005220914 0.00020154522
-0.023958728 -0.06967143 -0.08426377 -0.05182952 0.0051589217 0.05241189 0.06677568 -0.058501706
-0.0420572 0.025813324 -0.0120779155 -0.0009552421 0.011089246 -0.014526434 -0.010833167 0.007833732
0.0056158155 -0.008009799 0.0074907485 -0.006480256 -0.003055182 -0.0076823337 -0.0010147501 -0.0025422573
-0.029581686 -0.08701213 -0.0024107927 0.089356236 0.11052379 0.08880964 0.009093825 0.037939887
0.048088495 -0.039275773 0.016927898 -0.011842583 0.011954808 -0.009969611 -0.008123352 0.0002605509
-0.0044000926 0.006385873 -0.004528932 0.0013792394 -0.0014282865 -0.0020813341 0.0034125228 -0.00043701802
0.035851665 0.06253654 0.04577704 0.0017028695 -0.036187403 -0.052036487 -0.04594156 0.030395776
0.015808186 -0.0037735035 -0.004733226 0.010864094 -0.013245005 0.011332211 0.006733352 -0.0039703352
-0.002472639 0.0035033878 -0.002861269 0.0030010678 0.0022399488 0.0057030832 -0.00035944916 0.0013183332
0.0060402453 0.0074738646 0.0029881066 -0.0073822415 -0.02104055 -0.027320538 -0.022570908 0.0104953395
-0.0039515924 0.015072711 -0.01989162 0.020237671 -0.017993458 0.013835294 0.0080152005 -0.001382138
00000000: 249e 8ebd 27d9 70bd 301c 863a 2af3 153d
00000010: e609 1c3d 01c4 323d 6626 7a3d 1c4b 8abd
00000020: 755f 28bd c8e5 14bc 73a8 413d f708 5ebd
00000030: 4ff0 163d 8d57 89bc d0db d7bb 33fc b93a
00000040: c416 f9bb cbd7 423c 62b4 21bb 7b98 bbbb
00000050: 5322 09bc 4825 0539 4ccf 893b a845 833a
00000060: 10d9 b03e 2152 893e 1ef9 83be eecb cabe
00000070: 3b7f 3ebe 4429 c33b 42c5 aa3d cff7 d8bd
00000080: 4968 88bd 7995 9f3c c012 5fbc 7dc3 ec3c
00000090: 89d3 6abc 7f11 6dbc d264 48bc ed01 f1bb
000000a0: 4fdb bfbb 06b7 f5bb 165b ce3b bafd 02bc
000000b0: 9b27 c239 f97b 803c 4de0 74b9 c359 133a
000000c0: e7b1 0b3c db47 273c 3042 43bb 345b d4bc
000000d0: 1e55 2bbd effe 1bbd 0763 73bc b364 8dbc
000000e0: 5efb 2fbd 58a6 543d 8f2f 31bd 9ae5 bd3c
000000f0: 768d f339 6e3b a2bc 8fe5 eabc f017 db3c
00000100: 947f 843c 7210 6bbb 5bc1 c2bb 5aea 083c
00000110: 7585 adbb 2da0 8fba c008 913a 8174 a0ba
00000120: b469 443b 01e6 4dbb 6bc1 63bc 24cc 95bc
00000130: 8b5b 51bc 64b5 82bb b1ee 293b 7f34 02bc
00000140: 6d22 27bc b83e 163c ad26 dcbb 415a 823b
00000150: 8bd1 94ba 8e29 32ba 9cca 70ba b2fc 1c3a
00000160: 856f 6038 c0a6 3dba 3b49 3b3a 0e0d fcb9
00000170: e5c1 cbba 8b7f 6ab9 d079 57ba e242 2eba
00000180: 60ba 85bd a054 47bd d41d 813d 5b2d 243e
00000190: cd10 1d3e 646d 8c3d 8733 f9bc 7fd4 bf3d
000001a0: fe0a cd3d 3bd3 86bd 6a24 e23c 9de9 36bc
000001b0: 9a4e 303c 9ece 36bc 8fce b2bb 8315 93bb
000001c0: 8ea3 09bc 8a5c 313c 0d75 15bc c6cb 023c
000001d0: 15fe 27bb b1dd 293b 7abf a73b 49cb 9d39
000001e0: 6acd 143c 570f 3b3b e865 083d 0bb2 d03d
000001f0: 8e90 c03d 0c94 d3ba 7259 9dbd e732 8b3d
00000200: 3cbf 0c3d ca6e dbbc 586e 113d 0d46 04bd
00000210: df9e 4b3c 71ed d73b d84a 213c ebe9 bfbb
00000220: dccf 5bbb 9d33 153c 24c6 57bc 344a 5a3c
00000230: fbce f8ba 062e 8e3b 023f a53a cee7 a03a
00000240: 55c3 323d 259a 0b3e c97b 24bd 028a 31be
00000250: 2fb0 3bbe e4ba efbd dd48 be3c d95d bcbd
00000260: 50d7 c1bd 8726 8d3d 6147 d7bc d3db 813c
00000270: 0bb5 75bc 000d 283c 892b e33b 9949 a53b
00000280: 6e64 2d3c c310 56bc f57c 1c3c 8f55 99bb
00000290: e555 283a 9e0a c23a 3314 abbb e255 5339
000002a0: 1845 c4bc e5af 8ebd 7c92 acbd 314b 54bd
000002b0: 2c0c a93b daad 563d b0c1 883d 7c9f 6fbd
000002c0: 2c44 2cbd 7776 d33c 73e2 45bc 3669 7aba
000002d0: abaf 353c 4800 6ebc 987d 31bc 0e59 003c
000002e0: e004 b83b 883b 03bc f474 f53b 5458 d4bb
000002f0: 7339 48bb 16bc fbbb 5d01 85ba 009c 26bb
00000300: 4b55 f2bc 6a33 b2bd 64fe 1dbb 6700 b73d
00000310: 4c5a e23d d4e1 b53d 44fe 143c db66 1b3d
00000320: 71f8 443d a2df 20bd 60ac 8a3c 6507 42bc
00000330: 19de 433c 9457 23bc cf17 05bc 8d9a 8839
00000340: a72e 90bb 9640 d13b 6f67 94bb 98c7 b43a
00000350: 5835 bbba fe66 08bb a2a4 5f3b 911f e5b9
00000360: 32d9 123d 2813 803d b580 3b3d d232 df3a
00000370: 3e39 14bd 3624 55bd 382d 3cbd 9000 f93c
00000380: 2b80 813c e24c 77bb 2d19 9bbb 50ff 313c
00000390: 9401 59bc bdaa 393c 73a3 dc3b 9619 82bb
000003a0: 000c 22bb 1899 653b 2184 3bbb 90ad 443b
000003b0: 1bcc 123b eee0 ba3b 7374 bcb9 eccb ac3a
000003c0: 40ed c53b 52e7 f43b 1cd4 433b bbe6 f1bb
000003d0: 3b5d acbc 52cf dfbc a0e6 b8bc a5f4 2b3c
000003e0: 5c7c 81bb 88f3 763c c0f3 a2bc 79c9 a53c
000003f0: 0467 93bc 6ead 623c 3052 033c db28 b5ba
